cifar_net.pth (torch, 311188 bytes, 10 tensors)

conv1.weight f4 [10, 3, 5, 5]
0	0x3d05b065	0.032638926
1	0xbe2f94ee	-0.17146656
2	0xbcc9c5a5	-0.024630377
3	0x3f053512	0.52034104
4	0x3e09137e	0.13386342
5	0x3e9057b8	0.28191924
6	0xbf1495c7	-0.5804104
7	0xbee2c30d	-0.44289437
8	0x3f2fa946	0.68617666
9	0x3c75c256	0.014999947
10	0x3ed892b6	0.42299432
11	0xbeff4aa4	-0.49861634
12	0xbf5ff26b	-0.87479275
13	0x3f3826c2	0.7193414
14	0x3e55e6b2	0.20888785
15	0x3ed6abfa	0.41928083
16	0xbd03f6c4	-0.032217756
17	0xbf711dd6	-0.9418615
18	0x3ee50480	0.44729996
19	0x3e8efc70	0.2792697
20	0x3e5d6ca3	0.21623473
21	0xbd90f793	-0.07078471
22	0xbef29ac4	-0.47383702
23	0x3dad6d69	0.08468134
24	0x3de42152	0.11139168
25	0xbdb48f5a	-0.08816405
26	0xbf04593d	-0.51698667
27	0xbe89ed49	-0.26938847
28	0x3ebc4c6c	0.36777055
29	0x3e1f235e	0.15540835
30	0x3e99fde7	0.30076525
31	0xbf2b287c	-0.6685865
32	0xbef58513	-0.4795309
33	0x3f1788ce	0.5919312
34	0xbcfcc2ff	-0.0308547
35	0x3f1cdf12	0.6127788
36	0xbf0786c1	-0.52939993
37	0xbf84d39c	-1.0377078
38	0x3f031d0d	0.512162
39	0x3e3ac2fd	0.18238445
40	0x3ecf8b12	0.4053579
41	0xbcbf5b0c	-0.023358844
42	0xbf81d078	-1.0141745
43	0x3eb01daf	0.34397647
44	0x3e432635	0.19057544
45	0x3ec9e384	0.39431393
46	0xbdc9308e	-0.09823714
47	0xbf3aacd3	-0.7291996
48	0x3dbab67c	0.091168374
49	0x3d2c76d5	0.042105515
50	0x3ea380dd	0.31934252
51	0xbeb6417a	-0.3559683
52	0xbd4dc754	-0.050238922
53	0x3ebeadbb	0.3724192
54	0xbebdb2a2	-0.3705035
55	0x3f128ca1	0.5724583
56	0xbea48662	-0.32133776
57	0xbed0e4fd	-0.40799704
58	0x3f394573	0.72371596
59	0xbe63eb19	-0.22257651
60	0x3f3c34e0	0.7351818
61	0xbe1a7d8e	-0.15086958
62	0xbf4e0339	-0.8047367
63	0x3f380b3b	0.71892136
64	0xbe27b021	-0.16375782
65	0x3efc8bb5	0.49325338
66	0xbd1e3587	-0.038625266
67	0xbf47c97d	-0.7804182
68	0x3eaf407b	0.34228882
69	0xbd832384	-0.064032584
70	0x3ec7f261	0.39052108
71	0x3e20a333	0.15687256
72	0xbee75ff6	-0.451904
73	0x3e36cc56	0.17851385
74	0x3d631481	0.055439476
75	0xbdac85e4	-0.08423975
76	0x3bc2117f	0.005922496
77	0xbc3fde6d	-0.011710745
78	0xbdac1bf8	-0.08403772
79	0xbe0dfc42	-0.1386576
80	0x3c4ed03d	0.01262289
81	0xbbfcbe0d	-0.0077130855
82	0xbe9caeb8	-0.3060205
83	0xbe0a305b	-0.13495009
84	0x3b492377	0.0030691305
85	0xbdd1c36b	-0.10242351
86	0xbeae37de	-0.34026998
87	0xbec157e6	-0.37762374
88	0xbe5118cb	-0.20419614
89	0xbd944fc6	-0.07241778
90	0xbe3212f8	-0.17390049
91	0xbeeaa02b	-0.45825323
92	0xbebe3fde	-0.37158102
93	0xbe1dbb25	-0.15403421
94	0xbce091ff	-0.027413366
95	0xbe42159d	-0.18953557
96	0xbdfa4a72	-0.122212306
97	0xbd56253f	-0.052281614
98	0x3d288f55	0.041152317
99	0xbd68939a	-0.05678139
100	0xbdf461d8	-0.11932725
101	0xbd965188	-0.073397696
102	0xbe3f07b9	-0.1865529
103	0xbdd39c59	-0.10332555
104	0xbdb930ad	-0.09042487
105	0x3dbfafc7	0.09359699
106	0x3df7a423	0.120918535
107	0xbd13b235	-0.036058623
108	0xbdfade54	-0.12249437
109	0xbe0c9a7a	-0.13730803
110	0x3e0abd38	0.13548744
111	0xbe8dd983	-0.2770501
112	0xbe373784	-0.17892271
113	0x3c52f476	0.012875667
114	0x3db37293	0.08762088
115	0xbdfc3c21	-0.12316156
116	0xbea6e0cc	-0.3259338
117	0xbcb66fdb	-0.022270134
118	0xbaae8cbc	-0.0013317089
119	0x3cd167fa	0.025562275
120	0xbd30e44d	-0.043186475
121	0x3e392655	0.18081029
122	0x3dc93bf9	0.09825892
123	0x3d283c87	0.04107335
124	0x3d17f882	0.03710223
125	0xbcad443e	-0.021150704
126	0x3d292aaa	0.041300453
127	0x3e15ce4e	0.1462948
128	0xbd529beb	-0.051418226
129	0xbd2c8f91	-0.042129103
130	0x3d2e9bfb	0.042629223
131	0x3dd09ccd	0.101861574
132	0xbd887bcb	-0.06664237
133	0xbd126067	-0.035736468
134	0x3cee9481	0.029123547
135	0xbcd1f429	-0.02562912
136	0xbda993e0	-0.08280158
137	0xbe3e631e	-0.18592498
138	0x3e4e989e	0.20175406
139	0x3d938bee	0.07204424
140	0xbd726a55	-0.059183437
141	0xbe6febef	-0.23429845
142	0x3d4774ba	0.048695303
143	0x3e4cd3e1	0.200027
144	0xbd315f1b	-0.04330359
145	0x3e2603fe	0.1621246
146	0x3e2f8449	0.17140307
147	0x3e9b023f	0.3027515
148	0x3e13f4d9	0.1444887
149	0x3d3904ac	0.04517047
150	0xbe54fc20	-0.20799303
151	0xbb4ca008	-0.0031223316
152	0x3ea9a684	0.33134854
153	0xbf01a6b8	-0.5064502
154	0xbcee1f9f	-0.029067812
155	0xbe909a01	-0.28242496
156	0x3e8c0762	0.27349383
157	0x3ce19bd3	0.027540123
158	0xbf46ef0e	-0.7770852
159	0x3e299b85	0.16563232
160	0xbedaa851	-0.4270654
161	0x3e98a85b	0.29815945
162	0xbd911b68	-0.070853055
163	0xbf7386f7	-0.95127815
164	0x3ec10249	0.37697056
165	0xbd96f528	-0.073709786
166	0x3f04e2c7	0.51908535
167	0x3e838784	0.25689328
168	0xbece3abb	-0.40279183
169	0x3f144492	0.5791713
170	0xbdbcaf62	-0.09213139
171	0x3d49ade3	0.049238097
172	0xbe0af78f	-0.13570999
173	0xbf122212	-0.5708324
174	0x3e1b059d	0.1513886
175	0x3caeab9e	0.021322068
176	0x3ea0b096	0.31384724
177	0x3f0bbb7c	0.54582953
178	0xbeecfa84	-0.46284878
179	0x3dc3e326	0.095648095
180	0xbe4298d5	-0.19003613
181	0x3e9e682d	0.30938855
182	0x3ea9f674	0.3319584
183	0xbf38fde2	-0.72262394
184	0x3e90484b	0.28180155
185	0xbe8183c0	-0.2529583
186	0x3ef7eda9	0.48423508
187	0x3e9f8903	0.3115922
188	0xbf295ce4	-0.66157365
189	0x3efefb57	0.49801132
190	0x3e19de9c	0.15026325
191	0x3f3e2477	0.7427439
192	0x3e8f7daf	0.28025576
193	0xbea95c0a	-0.33078033
194	0x3f100ad6	0.56266534
195	0xbcbd8015	-0.023132363
196	0x3e373146	0.1788989
197	0xbdefb388	-0.11704165
198	0xbf185676	-0.5950693
199	0xbdc9c1ed	-0.098514415
200	0xbe4ae774	-0.19814855
201	0xbd9a1873	-0.075241946
202	0x3ea8bd93	0.32957134
203	0xbea26572	-0.31718022
204	0x3db238f0	0.08702266
205	0xbedbd0c4	-0.42932713
206	0x3e05f7e6	0.13082847
207	0x3e90466d	0.2817873
208	0xbf00c647	-0.5030255
209	0x3ec156ee	0.37761635
210	0xbe87e269	-0.26539925
211	0x3e9f9065	0.31164852
212	0x3e6efa4b	0.23337667
213	0xbf0d22ae	-0.5513104
214	0x3eabb6ef	0.33538005
215	0xbe38a06a	-0.18029943
216	0x3eda0196	0.42579335
217	0x3ea26767	0.31719515
218	0xbdcc6c6e	-0.09981619
219	0x3ee088ac	0.43854272
220	0xbe50de55	-0.20397313
221	0xbe0ee7ec	-0.13955659
222	0x3c9418f2	0.018078301
223	0xbf0a8994	-0.5411618
224	0xbd75c262	-0.05999983
225	0xbd82deb7	-0.06390136
226	0xbd91a7e8	-0.07112104
227	0xbca901de	-0.020630773
228	0x3e064b07	0.13114558
229	0x3e732d8f	0.23747848
230	0xbe66d4b4	-0.22542077
231	0xbe864ff5	-0.26232877
232	0xbe1cc17b	-0.15308182
233	0xbd51b498	-0.05119762
234	0x3d7b7c9b	0.06139813
235	0xbe7c7cc6	-0.24656972
236	0xbea99f28	-0.3312924
237	0xbecf18f6	-0.4044873
238	0xbe788da0	-0.24272776
239	0xbe019a9c	-0.12656635
240	0xbe326e85	-0.17424972
241	0xbe92b8a4	-0.28656495
242	0xbe1e89c6	-0.15482244
243	0xbd09094a	-0.033456124
244	0xbd85492d	-0.06508098
245	0xbea781cd	-0.32716218
246	0xbe0fe64b	-0.14052694
247	0xbe07f3bb	-0.1327657
248	0x3c3e0c83	0.011599663
249	0xbd20e3f3	-0.03927989
250	0xbe8fd8d9	-0.2809513
251	0xbe1e6451	-0.15467955
252	0x3cec03ec	0.028810464
253	0xbe265700	-0.16244125
254	0x3c4214c3	0.01184577
255	0xbe3c083f	-0.1836252

conv1.bias f4 [10]
0	0xbf02b727	-0.5106072
1	0xbf28d770	-0.6595373
2	0xbeb67e07	-0.35643026
3	0x3ef56fa2	0.47936732
4	0xbf08ced7	-0.5344061
5	0xbf45ca89	-0.7726217
6	0xbe64c4ea	-0.22340742
7	0xbf5123a1	-0.8169499
8	0xbecc862d	-0.39946118
9	0xbf1b04e7	-0.60554355

conv2.weight f4 [20, 10, 5, 5]
0	0x3ca19408	0.019723907
1	0xbb879604	-0.0041377563
2	0x3e01d338	0.1267823
3	0x3ea12997	0.31477043
4	0x3e38b7fb	0.18038933
5	0xbdc514f1	-0.09623135
6	0x3d94e169	0.07269556
7	0x3d867e92	0.0656711
8	0x3cd87a1f	0.02642542
9	0xbd1ffc7f	-0.03905916
10	0xbe8c4769	-0.27398232
11	0xbe9d1abb	-0.30684456
12	0xbe89dfb0	-0.26928473
13	0xbeb563cd	-0.35427704
14	0xbe8b3aed	-0.27193394
15	0xbde78563	-0.113047384
16	0xbe840bf7	-0.25790378
17	0xbe974a55	-0.29548898
18	0xbebb69c6	-0.36604136
19	0xbee630f7	-0.44959232
20	0x3d53a9fe	0.05167579
21	0xbadc9f9c	-0.0016832235
22	0xbdf29346	-0.118444964
23	0xbeaccbac	-0.3374914
24	0xbe6db413	-0.23213224
25	0xbdcd0084	-0.10009864
26	0xbc2c79ab	-0.010527055
27	0x3c9a65ef	0.018847434
28	0xbd404a5d	-0.04694592
29	0xbd8626b7	-0.06550353
30	0xbe0fc676	-0.1404055
31	0xbd476035	-0.048675735
32	0x3d0ff3a3	0.03514446
33	0x3da0c87c	0.07850739
34	0xbe1357ab	-0.14388911
35	0xbcc5f880	-0.024166346
36	0xbdd5e1ea	-0.1044348
37	0x3d0db9f1	0.034601156
38	0xbcaa7ded	-0.020812
39	0xbe2b8d4e	-0.16753122
40	0x3e0bba24	0.13645226
41	0x3d87ae27	0.06625014
42	0x3d240c1f	0.040050622
43	0xbdb67311	-0.08908666
44	0xbd89e2c1	-0.06732703
45	0x3d76d283	0.060259353
46	0x3cc95c9b	0.02458029
47	0xbce59140	-0.028023362
48	0x3abbbcbd	0.0014323216
49	0xbc58d23e	-0.013233719
50	0xbe41ff2c	-0.18944997
51	0xbe072059	-0.13195933
52	0x3d4d1078	0.050064534
53	0xbdd61687	-0.104535155
54	0xbd06b280	-0.032885075
55	0xbe6c61b2	-0.23084143
56	0xbe394d30	-0.18095851
57	0xbe190a25	-0.14945276
58	0x3cbe65ab	0.023241838
59	0xbe01f341	-0.1269045
60	0xbe8bc856	-0.27301282
61	0xbe4fe095	-0.20300515
62	0xbe44f8d8	-0.19235551
63	0xbdb03d3f	-0.08605432
64	0xbe5a60e6	-0.21326026
65	0xbe83bbc7	-0.257292
66	0xbe03f6fd	-0.12887187
67	0xbe619344	-0.22028834
68	0xbe9d3786	-0.30706424
69	0xbe6cedbd	-0.23137565
70	0xbdb52141	-0.08844233
71	0xbe8f0c77	-0.27939197
72	0xbea4de18	-0.32200694
73	0xbe9e12a5	-0.308736
74	0xbe702751	-0.23452498
75	0xbd011cd8	-0.03152165
76	0xbdc67b6f	-0.09691512
77	0xbd82dd92	-0.063899174
78	0xbdf58833	-0.119888686
79	0x3d4a6cec	0.049420282
80	0x3d3b8680	0.045782566
81	0xbdd49ca8	-0.10381442
82	0xbd402670	-0.046911657
83	0xbd7fd503	-0.062459003
84	0x3b95b203	0.00456834
85	0x3dfe6cee	0.124231204
86	0xbb331983	-0.0027328439
87	0xbdbabfe0	-0.091186285
88	0xbcbb303e	-0.022850152
89	0x3dbee76f	0.09321486
90	0x3ca4abba	0.020101417
91	0x3e1e88cd	0.15481873
92	0x3e1f1d1c	0.15538448
93	0x3b86b2b6	0.0041106595
94	0x3c579560	0.013158172
95	0x3e423413	0.18965177
96	0x3e854c1d	0.26034632
97	0x3e8a4803	0.27008066
98	0x3e2d59e9	0.16928829
99	0x3dd03ce6	0.101678655
100	0xbe3b7565	-0.18306501
101	0xbe2be297	-0.16785656
102	0x3bbe8cb6	0.005815114
103	0xbd4270e4	-0.047470942
104	0xbcd88fe8	-0.026435807
105	0xbe78c522	-0.2429395
106	0xbe30d1bb	-0.17267506
107	0xbd358a1f	-0.044321176
108	0xbdb8776d	-0.09007154
109	0xbd259ec4	-0.040434614
110	0xbda6916d	-0.081332065
111	0xbe2406a4	-0.16018158
112	0xbe6cd6b8	-0.23128784
113	0xbdb0ba4b	-0.086292826
114	0xbd042832	-0.032264896
115	0x3d92b61c	0.07163641
116	0xbde0d38f	-0.109778516
117	0xbe57e14b	-0.21082036
118	0xbc4e92a3	-0.012608203
119	0x3cf42e60	0.02980727
120	0x3e4c6930	0.19962001
121	0xbd57d4bd	-0.052693117
122	0xbdfc8835	-0.12330667
123	0xbc078a40	-0.008272707
124	0x3e3579d3	0.17722254
125	0xbdcbe4c0	-0.0995574
126	0xbd5109c2	-0.051034696
127	0xbe3cb4b5	-0.1842831
128	0xbe4339f5	-0.19065078
129	0xbe241532	-0.1602371
130	0x3ced591b	0.028973153
131	0xbdd02cb4	-0.101647764
132	0xbd81ad7b	-0.06331917
133	0xbdc188dc	-0.09449932
134	0x3da53283	0.08066275
135	0x3e30c185	0.17261322
136	0x3e0a03bd	0.13477989
137	0x3e08ce03	0.13359837
138	0x3df50d5e	0.1196544
139	0x3e6307c5	0.22170933
140	0x3e69ec2c	0.22843999
141	0x3e033e2a	0.12816682
142	0x3e24f6f5	0.16109832
143	0x3df77234	0.120823294
144	0x3e6ec6fa	0.23318091
145	0x3e1d179e	0.1534104
146	0x3e29a942	0.16568473
147	0x3db85974	0.09001437
148	0x3d10738a	0.035266437
149	0x3dafc66d	0.085827686
150	0x3e14d959	0.14536037
151	0x3cec31d9	0.028832363
152	0x3d8a1c6c	0.06743702
153	0x3dd0066b	0.10157474
154	0x3cae0771	0.021243783
155	0x3e0c494e	0.13699839
156	0x3e04a39f	0.12953041
157	0xbc88335a	-0.016626049
158	0xbdbb4512	-0.091440335
159	0x3c68a847	0.014200277
160	0xbd75cc97	-0.060009565
161	0x39110973	0.00013831798
162	0xbd736b4b	-0.059428494
163	0xbddbd6fe	-0.10734366
164	0xbe04380d	-0.12912007
165	0xbdb5db8b	-0.08879765
166	0xbdf70f15	-0.120634235
167	0x3ca5bdac	0.020232044
168	0x3d1721bb	0.036897402
169	0xbe8a7de2	-0.27049166
170	0x3e471a3f	0.19443606
171	0x3d9e1054	0.07717958
172	0x3d91d81c	0.07121298
173	0x3e6dbac5	0.23215778
174	0xbd235442	-0.039875276
175	0x3e1dd92c	0.15414876
176	0xbe0159fa	-0.1263198
177	0xbe51abc5	-0.20475681
178	0xbda2e7b3	-0.07954349
179	0xbcb5db04	-0.022199161
180	0x3ea393f3	0.31948814
181	0x3e33a0e3	0.17541842
182	0x3cff3460	0.031152904
183	0xbb9567b8	-0.0045594834
184	0xbc834d57	-0.01602809
185	0xbd98dfb2	-0.074645415
186	0x3e1477b9	0.14498796
187	0x3e3de1ba	0.18543139
188	0x3dd5c171	0.10437287
189	0x399cd72c	0.00029914954
190	0x3ea608a1	0.32428458
191	0x3e091018	0.13385046
192	0x3e37ebdb	0.17961065
193	0x3bf29e89	0.007404153
194	0x3d5492e9	0.051897917
195	0x3e82837c	0.2549094
196	0xbd6e9a69	-0.058252726
197	0x3abc5e35	0.0014371338
198	0x3d2aea24	0.0417272
199	0x3c06ec04	0.008234981
200	0x3d59e978	0.05320117
201	0x3d97f331	0.07419432
202	0x3e633f94	0.22192222
203	0x3e70cf72	0.23516634
204	0x3f100c55	0.5626882
205	0x3e28ba76	0.16477379
206	0xbd451f4f	-0.04812556
207	0x3e069fe9	0.13146938
208	0x3e88a13b	0.2668551
209	0x3e943776	0.28948563
210	0x3e7a5979	0.24448194
211	0x3dcbb67a	0.09946914
212	0x3e46018c	0.19336528
213	0x3e87fbb4	0.26559222
214	0x3dece7a8	0.115676224
215	0x3e8c8518	0.27445292
216	0x3e876e6e	0.2645144
217	0x3e7465a8	0.23866904
218	0xbcf787eb	-0.030216178
219	0xbe079ad4	-0.13242656
220	0xbce07595	-0.027399817
221	0x3e2310d6	0.15924391
222	0x3dfa1f4b	0.12213
223	0xbd98fbb8	-0.074698865
224	0xbe029a00	-0.12754059
225	0xbcc7b059	-0.024376081
226	0xbbc770d7	-0.0060864496
227	0xbda5f476	-0.08103268
228	0x3ce8bbb5	0.028409818
229	0xbd2516ba	-0.040304877
230	0x3e305754	0.17220813
231	0xbd35f7ab	-0.044425648
232	0xbe476cd4	-0.19475108
233	0x3cdb558b	0.026774189
234	0x3e3284f1	0.17433526
235	0xbda6321e	-0.08115028
236	0x3c1ec371	0.009690152
237	0x3e11188e	0.14169523
238	0x3e11c83c	0.1423654
239	0xbd42f202	-0.047594078
240	0x3d35d914	0.044396475
241	0x3db504f0	0.088388324
242	0x3bf294e9	0.0074030054
243	0x3d693b25	0.05694117
244	0xbda88d73	-0.08230104
245	0x3daf3641	0.0855527
246	0x3d8aa4cc	0.06769714
247	0xbd6924ca	-0.05691985
248	0xbdcde943	-0.10054257
249	0xbce2111f	-0.027596055
250	0xbe018766	-0.12649307
251	0x3d4fb9c6	0.050714277
252	0x3d602fd6	0.05473312
253	0x3e485b91	0.1956618
254	0x3bca369a	0.00617106
255	0xbd68ce21	-0.056837205

conv2.bias f4 [20]
0	0xbf8e9264	-1.1138425
1	0xbf5b0178	-0.85549116
2	0x3f0e78da	0.55653155
3	0x3e96b8d8	0.294379
4	0xbdf614d6	-0.12015693
5	0xbfa7ef56	-1.3119915
6	0x3ecc05f0	0.3984828
7	0x3f8807ee	1.062742
8	0x3ef04501	0.46927646
9	0x3d759893	0.05995996
10	0xbf70f3c0	-0.94121933
11	0x3f88959a	1.0670655
12	0x3ee511f3	0.44740257
13	0x3d8c6d29	0.06856758
14	0x3df76b84	0.12081054
15	0x3f0a2779	0.5396648
16	0x3f99fbfc	1.2030025
17	0xbd863355	-0.065527596
18	0xbea6a11c	-0.32544792
19	0x3ebd72db	0.3700169

fc1.weight f4 [120, 500]
0	0xbca6027b	-0.020264855
1	0x3cb997b8	0.022655353
2	0x3c04f382	0.008114697
3	0x3cf89ef0	0.030349225
4	0xbccdf512	-0.025141273
5	0x3badafa7	0.0053004804
6	0xbd9c4416	-0.07630174
7	0xbcdc5b68	-0.026899055
8	0x3d438821	0.047737245
9	0x3c6794ec	0.014134627
10	0xbd84c26d	-0.06482396
11	0xbd875110	-0.06607258
12	0xbdafecd9	-0.08590097
13	0x3d53c1b0	0.051698387
14	0x3b47f373	0.0030510097
15	0xbc4f3694	-0.01264729
16	0x3cffef67	0.031242086
17	0x3e02e0b1	0.12781025
18	0x3e353c65	0.1769882
19	0x3e19f30f	0.15034126
20	0xbcfe4e77	-0.031043274
21	0x3c94803c	0.018127553
22	0x3c8b81e8	0.017029718
23	0x3d471f65	0.048613925
24	0x3d87a0e1	0.06622482
25	0xbb031ba5	-0.002000549
26	0x3bd58702	0.0065163383
27	0x3c8d33d7	0.017236633
28	0xbb98614a	-0.0046502696
29	0x3bc1ec42	0.0059180567
30	0xbc6840b5	-0.014175584
31	0xbced1cf3	-0.028944468
32	0x3d44dd1d	0.048062433
33	0x3ce48368	0.02789469
34	0xbcd030f1	-0.025413962
35	0xbd567742	-0.052359827
36	0xbd9ea800	-0.07746887
37	0xbd0eca5b	-0.03486095
38	0xbcbed62e	-0.023295488
39	0x3bfd2c13	0.0077262013
40	0xbd311192	-0.043229647
41	0xbd58a603	-0.052892696
42	0xbc9e5609	-0.019328134
43	0x3cd2584b	0.025676867
44	0x3d828ffc	0.06375119
45	0x3d1db024	0.03849806
46	0xbcee57f8	-0.029094681
47	0x3d63accf	0.055584725
48	0x3d874198	0.06604308
49	0x3dd76f3b	0.105192624
50	0xbd765fab	-0.06014983
51	0xbe001018	-0.1250614
52	0xbdacc94d	-0.084368326
53	0x3c734b5b	0.014849509
54	0x3d1c3b7a	0.03814266
55	0x391bf493	0.00014873063
56	0x3b0b06df	0.0021213812
57	0xbd980d6f	-0.07424437
58	0xbc99f886	-0.018795263
59	0x3c843293	0.016137397
60	0xbcfe29ca	-0.031025786
61	0xbcf8163d	-0.030284042
62	0xbd9b1b43	-0.07573559
63	0xbca16c1c	-0.01970487
64	0x3cc4c147	0.024017943
65	0xbd97ddc3	-0.074153446
66	0xbe190d93	-0.14946584
67	0xbc905386	-0.017617952
68	0x3daa77b0	0.0832361
69	0x3d8ccf27	0.06875449
70	0xbdd81142	-0.10550167
71	0xbd85f91f	-0.06541657
72	0xbb4aaedd	-0.003092698
73	0x3dd3fda8	0.103511155
74	0x3b7dec50	0.003874559
75	0xbd8379a5	-0.06419686
76	0xbd53cb66	-0.051707648
77	0xbd9332b4	-0.07187405
78	0xba3e0c50	-0.00072497595
79	0xbc6e8ebb	-0.014560397
80	0xbb873bef	-0.0041270177
81	0xbd98d9c3	-0.0746341
82	0xbdcf580e	-0.10124217
83	0x3d930a03	0.07179644
84	0x3bcb786f	0.006209425
85	0xbd4bc3e2	-0.049747355
86	0xbda1524a	-0.078770235
87	0xbc4dea89	-0.012568125
88	0x3daee2b7	0.08539336
89	0x3da5df7f	0.08099269
90	0x3d898c1f	0.06716179
91	0xbd708f99	-0.058730695
92	0x3d905549	0.07047517
93	0x3d9cc41e	0.07654594
94	0x3d76c324	0.060244694
95	0xbdb00bb7	-0.085959844
96	0xbe433413	-0.19062833
97	0xbd70c7d6	-0.05878433
98	0xba34630f	-0.0006881216
99	0x3cf105d3	0.029421723
100	0x3d192ee2	0.037398227
101	0xbbda31d5	-0.0066587725
102	0x3d0c7af2	0.034296937
103	0x3d55effe	0.052230828
104	0x3cf7e2f0	0.03025958
105	0x3c81e033	0.015853977
106	0xbcda901f	-0.02668005
107	0xbcfa4250	-0.030549198
108	0xbc5a2d7c	-0.013316508
109	0xbdd34aa8	-0.10316974
110	0x3d322b44	0.043498293
111	0xbdb1b272	-0.08676614
112	0xbdc98c8a	-0.09841259
113	0xbd99db22	-0.075124994
114	0xbd9d21f7	-0.07672494
115	0x3d26620d	0.040620852
116	0x3d16386a	0.036674894
117	0x3d0572b5	0.032580096
118	0x3c93e008	0.018051162
119	0xbb4b4d5e	-0.0031021456
120	0x3d88912e	0.06668316
121	0x3bbba014	0.00572587
122	0x3b49cdc0	0.0030792803
123	0x3d226f5f	0.039656993
124	0x3d3e29b4	0.04642649
125	0x3d7a3749	0.06108788
126	0x3d4daa56	0.050211273
127	0xbd248918	-0.040169805
128	0xbd153c71	-0.036434595
129	0xbd0f3b5b	-0.034968715
130	0x3d810f88	0.063017905
131	0x3da0d849	0.07853753
132	0xbd50eb92	-0.051005907
133	0xbd20c82e	-0.039253406
134	0x3cae6ad5	0.021291176
135	0x3d9fca7d	0.078022934
136	0x3d2d1bc6	0.042262815
137	0x395052f3	0.00019867327
138	0x3c69ee2a	0.014277974
139	0xbdf0e1ad	-0.11761794
140	0xbd9d1d3a	-0.0767159
141	0x3d1a0d7a	0.03761051
142	0xbde328b9	-0.110917516
143	0xbd74960d	-0.059713412
144	0xbd09cbe9	-0.03364173
145	0x3e12ae5d	0.14324327
146	0x3d912962	0.07087971
147	0x3d1358b1	0.035973255
148	0x3cf45e82	0.029830221
149	0x3d5054df	0.05086219
150	0x3bb5a090	0.005542822
151	0x3baf9821	0.0053587114
152	0xbcca3138	-0.024681672
153	0xbcb61648	-0.022227421
154	0xbd4e997f	-0.050439354
155	0xbd8151cc	-0.0631443
156	0xbc102f46	-0.008800333
157	0x3d1982d7	0.037478294
158	0x3cebecf2	0.028799508
159	0x3d53ec97	0.0517393
160	0xbd4b88da	-0.04969106
161	0xbd16169f	-0.036642667
162	0x3ba3b313	0.0049957125
163	0x3cf0c0b6	0.029388767
164	0x3ced3d1c	0.028959803
165	0x3b9f56ff	0.0048626657
166	0xbb6d4187	-0.0036202387
167	0xbd21723d	-0.039415587
168	0xbca08864	-0.019596286
169	0xbbc8c97e	-0.0061275354
170	0x3d8dffd9	0.06933565
171	0x3d668dd1	0.05628759
172	0xbd04a64a	-0.032385148
173	0xbd1bc222	-0.038026936
174	0xbe14c461	-0.14528038
175	0xbc6ba04a	-0.014381478
176	0xbd8675f0	-0.065654635
177	0xbd3a54a8	-0.04549089
178	0x3d60465c	0.0547546
179	0x3b46ee8e	0.0030354592
180	0x3d44b7bf	0.048026796
181	0xbdbc80d3	-0.09204259
182	0x3dfa584a	0.12223871
183	0x3df05d3f	0.11736535
184	0x3d3a438a	0.045474567
185	0x3d7aa379	0.061191056
186	0x3ccd1021	0.025032105
187	0x3d0ff720	0.035147786
188	0x3ca18151	0.019714983
189	0xbd1ee74f	-0.03879481
190	0x3c390766	0.011293268
191	0xbc466da9	-0.012111106
192	0x3d0d7386	0.034534
193	0x3ba4a04b	0.005023991
194	0x3c0f3da3	0.008742723
195	0xbe16e3c0	-0.14735317
196	0xbde4b9ad	-0.11168227
197	0xbd72c7ff	-0.059272762
198	0xbd285efa	-0.0411062
199	0x3b25c02f	0.0025291552
200	0x3dacecb7	0.08443587
201	0x3b86773a	0.0041035684
202	0xbd816cab	-0.06319555
203	0xbd6ceed3	-0.057844948
204	0xbd106841	-0.035255674
205	0x3d5fa85e	0.054603927
206	0x3d66cec7	0.056349542
207	0x3cc02b38	0.023458108
208	0xbd9318ae	-0.07182442
209	0xbd10225c	-0.035189018
210	0xbc937f5e	-0.01800507
211	0xba1146ac	-0.0005541842
212	0x3c70627a	0.014671916
213	0x3aff8b04	0.0019496386
214	0x3ccd61f7	0.025071127
215	0xbb779611	-0.0037778656
216	0xbd10f67f	-0.035391327
217	0x3ca7e374	0.0204942
218	0xbc1019eb	-0.008795242
219	0xbcdbf0d2	-0.02684823
220	0xbc3e69bd	-0.01162189
221	0x3c935605	0.017985353
222	0xbd7dffb3	-0.062011432
223	0x3c9efc05	0.019407282
224	0xbc2d55bf	-0.0105795255
225	0xbb288393	-0.002571319
226	0xbd1f935e	-0.0389589
227	0xbd228b87	-0.039683845
228	0x3d554d81	0.052075867
229	0x3d86ca54	0.0658156
230	0x3d8bbe31	0.068233855
231	0xbcaae482	-0.020860914
232	0xbcc759b4	-0.024334766
233	0xbcbf9856	-0.02338807
234	0x3d8ee217	0.06976717
235	0x3d97f49b	0.07419702
236	0x3d6d4751	0.05792934
237	0xbcdc5b3f	-0.026898978
238	0x3c75b8b2	0.014997648
239	0x3bcd37c7	0.0062627527
240	0x3920f4c7	0.00015349976
241	0xbcc32d46	-0.023825299
242	0x3c438933	0.011934566
243	0xbd9b6e57	-0.07589405
244	0xbc6278b6	-0.013822725
245	0x3c610569	0.0137342
246	0xbc9c6a01	-0.019093515
247	0xbd45984a	-0.048240937
248	0xbd4f6a00	-0.0506382
249	0xbda4150a	-0.080118254
250	0xbdaff0fd	-0.08590887
251	0x3d7c3592	0.061574526
252	0x3da6522b	0.08121141
253	0xbe0e8be0	-0.13920546
254	0xbc797a9c	-0.015226986
255	0xbd6a1bd8	-0.05715546

fc1.bias f4 [120]
0	0xbd2d2ed2	-0.04228098
1	0xbe27bbf9	-0.163803
2	0x3cdf9e50	0.027297169
3	0x3e43ef13	0.19134168
4	0x3e1e553f	0.15462206
5	0xbd8f0317	-0.06983011
6	0xbce621ba	-0.028092254
7	0xbd0d3195	-0.034471113
8	0x3d3f65af	0.046727832
9	0x3e8dba59	0.27681234
10	0x3e92eb49	0.28695133
11	0x3eae5ac1	0.34053615
12	0xbdcb94d0	-0.09940493
13	0x3e31ff15	0.17382462
14	0xbe052060	-0.13000631
15	0xbd83968d	-0.064252
16	0x3e6a2c58	0.22868478
17	0x3d24a674	0.040197805
18	0x3d4b07ac	0.049567863
19	0x3d8150a3	0.06314208
20	0xbd87ea60	-0.066365
21	0x3e614011	0.21997096
22	0x3d944925	0.07240514
23	0xbd27da7a	-0.04097984
24	0x3d1da2dc	0.038485393
25	0xbd668426	-0.05627837
26	0xbcae2125	-0.021256039
27	0x3e373c1d	0.17894025
28	0xbb8f4c76	-0.0043731285
29	0x3e3185ce	0.17336199
30	0x3c5132bd	0.012768445
31	0xbd08842c	-0.033329174
32	0x3e700e9f	0.23443078
33	0x3bb15aeb	0.0054124496
34	0xbd057994	-0.03258665
35	0x3e624cd6	0.22099623
36	0x3e178a88	0.14798939
37	0xbdc8a57e	-0.0979719
38	0x3d845ee6	0.06463413
39	0x3dfef496	0.12448995
40	0x3c9a6e2a	0.018851358
41	0x3d1a0185	0.037599105
42	0xbcf0201b	-0.029312184
43	0x3d2682be	0.04065203
44	0x3de1ac8e	0.1101924
45	0xbb904990	-0.0044033006
46	0xbd099831	-0.033592407
47	0xbdd17ef6	-0.10229294
48	0x3e68d48f	0.22737335
49	0xbd730bb8	-0.059337348
50	0xbdaf2c4f	-0.08553373
51	0x3e9932a4	0.29921448
52	0x3d985823	0.07438686
53	0xbd5eae7d	-0.054365624
54	0xbd5fbfef	-0.0546264
55	0xbd595497	-0.053059187
56	0x3b92fe7b	0.004485903
57	0xbd23d713	-0.040000033
58	0x3c1c5aff	0.00954318
59	0x3de05a7b	0.10954758
60	0xbd8c720f	-0.068576925
61	0xbd2b4bdd	-0.041820396
62	0x3e216559	0.15761317
63	0x3cff2651	0.0311462
64	0x3d848190	0.064700246
65	0x3da2e661	0.079540975
66	0xbda3d495	-0.07999531
67	0x3d5cce18	0.053907484
68	0xbcc013ca	-0.023446936
69	0x3e4f6df6	0.2025679
70	0xbd895267	-0.0670517
71	0x3dbbb614	0.09165588
72	0xbe2249b6	-0.15848431
73	0xbd24bdb6	-0.040219985
74	0xbd962a8f	-0.07332336
75	0xbe3745e6	-0.17897758
76	0xbda58d37	-0.08083575
77	0x3d20294e	0.03910189
78	0xbd5f9bea	-0.05459205
79	0xbe1f1d6d	-0.15538569
80	0x3ceca21b	0.028885892
81	0x3e430e1f	0.19048356
82	0x3e29289d	0.16519399
83	0x3ddf2b1f	0.108968966
84	0x3ddf4833	0.10902443
85	0x382c53e0	4.108611e-05
86	0x3eb0c594	0.3452574
87	0x3e8fff18	0.2812431
88	0x3d36016f	0.04443496
89	0x3dc51332	0.09622802
90	0xbd87dba8	-0.06633693
91	0xbc75af60	-0.014995426
92	0x3e110530	0.14162135
93	0x3dc77a62	0.097401395
94	0xbdba2550	-0.09089148
95	0xbcb93801	-0.022609713
96	0x3d713a3c	0.058893427
97	0x3e136e1a	0.14397469
98	0x3d834ab7	0.06410735
99	0x3dae682c	0.08515963
100	0x3e1506fb	0.14553444
101	0xbe2512fb	-0.16120522
102	0x3d631354	0.055438355
103	0x3e7be352	0.24598435
104	0xbd76bab1	-0.060236637
105	0x3d1a06e8	0.037604243
106	0x3d734275	0.05938955
107	0x3da194e8	0.0788973
108	0x3dc2a1d4	0.095035225
109	0xbded5e82	-0.115902916
110	0xbc1a9fbd	-0.009437499
111	0xbe4b361a	-0.19844857
112	0xbdb13155	-0.086519875
113	0xbc3d9196	-0.011570355
114	0x3d9d582d	0.07682834
115	0xbe20a8fe	-0.15689465
116	0x3d312525	0.043248314
117	0x3d192288	0.037386447
118	0xbe411514	-0.18855697
119	0x3dd677a4	0.104720384

fc2.weight f4 [84, 120]
0	0xbcadca0a	-0.021214504
1	0x3e26acc9	0.1627685
2	0x3cd62b7b	0.02614378
3	0xbdf28025	-0.11840848
4	0xbdc8d423	-0.09806087
5	0x3db98a8c	0.09059629
6	0x3c9499a1	0.018139662
7	0xbd830e78	-0.06399244
8	0xbd1feb5e	-0.039042823
9	0x3d67380b	0.05644993
10	0xbd8bb083	-0.06820776
11	0xbd503b58	-0.050837845
12	0x3c8eab70	0.017415732
13	0xbd9390ad	-0.07205329
14	0xbce2c669	-0.0276825
15	0x3cce1cf6	0.025160294
16	0xbcb20aaf	-0.02173361
17	0xbd958947	-0.07301574
18	0x3dde400a	0.10852058
19	0xbcc6f5ab	-0.024287065
20	0x3e4ee795	0.20205529
21	0xbd4f78b0	-0.050652206
22	0x3c7519ec	0.014959794
23	0x3d0527eb	0.032508772
24	0xbcc91637	-0.024546726
25	0xbc453b61	-0.012038083
26	0x3d330d61	0.04371393
27	0xbd9e7d54	-0.07738748
28	0x3c9b86e1	0.018985214
29	0x3e4cb160	0.19989538
30	0x3e106f5a	0.14104977
31	0xbd7f59f7	-0.062341657
32	0xbe2e43d6	-0.17018065
33	0x3d2321c4	0.039827123
34	0xbd4312b6	-0.047625266
35	0xbd0f7105	-0.035019893
36	0x3d9a8c59	0.075463004
37	0xbd93c862	-0.07215954
38	0xbe004ce3	-0.1252933
39	0x3d88b75a	0.066755965
40	0x3d18e161	0.037324313
41	0x3c3ee2c5	0.011650746
42	0x3dadec99	0.08492393
43	0x3db6aaff	0.08919334
44	0x3a20f191	0.0006139512
45	0x3d5dfa7c	0.05419396
46	0xbd775c82	-0.060390957
47	0x3da2a72f	0.07942044
48	0xbdd7918d	-0.105258085
49	0x3e057afe	0.13035199
50	0xbd0048f1	-0.031319562
51	0xbcd19fce	-0.025588896
52	0xb9d9378e	-0.00041430857
53	0x3b659b31	0.0035035128
54	0xbdc7755a	-0.0973918
55	0x3d891a3c	0.06694457
56	0xbd84f071	-0.06491173
57	0xbd308750	-0.043097794
58	0x3d93e944	0.07222226
59	0x3da0ee70	0.07857978
60	0xbc412df7	-0.011790744
61	0x3e11e668	0.1424805
62	0x3d133222	0.035936482
63	0xbd6d54ea	-0.05794231
64	0x3d44240e	0.047885947
65	0xbd00b811	-0.03142554
66	0xbd6355b1	-0.055501644
67	0xbd25bc14	-0.04046257
68	0xbc818529	-0.015810566
69	0xbd4479ca	-0.04796771
70	0xbd3915df	-0.045186874
71	0x3e3a6ee2	0.18206361
72	0xbc1c13e3	-0.009526226
73	0xbd13ffa2	-0.036132462
74	0x3d0fabff	0.035076138
75	0x3ddfa332	0.10919799
76	0xbe34d5b3	-0.17659645
77	0xbd124b0c	-0.0357161
78	0x3dbda1e7	0.09259396
79	0x3b937cc2	0.0045009563
80	0xbe1a3125	-0.1505781
81	0xbde96643	-0.11396458
82	0xbdb5b908	-0.088731825
83	0xbdc51c56	-0.09624545
84	0x3d827be0	0.063712835
85	0xbd3fb0d1	-0.046799485
86	0xbe04b75c	-0.12960571
87	0xbdf0887c	-0.11744782
88	0xbe3afb02	-0.18259814
89	0x3d6a2439	0.05716345
90	0x3e31e7ff	0.17373656
91	0x3d3b2108	0.045685798
92	0x3c98cde5	0.018652866
93	0xbc213904	-0.009840254
94	0x3cfc464d	0.03079524
95	0x3c33de7f	0.01097834
96	0xbdfd4461	-0.12366558
97	0xbda18aa9	-0.078877755
98	0xbd71428b	-0.05890135
99	0x3e620e77	0.2207583
100	0xbdecd756	-0.115645096
101	0x3d646a9b	0.05576573
102	0xbe3c120f	-0.18366264
103	0xbde23015	-0.11044327
104	0xbce00318	-0.027345225
105	0xbbb9d092	-0.0056706155
106	0x3c7e9919	0.015539431
107	0xbde98fd9	-0.1140439
108	0x3de9ae25	0.114101686
109	0xbd845305	-0.06461147
110	0xbe0054c3	-0.12532334
111	0x3d76d3e5	0.060260672
112	0x3cef6a94	0.029225625
113	0x3d536ddc	0.051618442
114	0xbd29b5aa	-0.041433014
115	0x3d9e05e1	0.07715965
116	0xbdae5384	-0.08512023
117	0xbdd98215	-0.10620514
118	0x3da352d2	0.07974781
119	0x3d150fcd	0.036392022
120	0x3bca1afd	0.006167768
121	0x3daf5216	0.085605785
122	0xbd816512	-0.06318106
123	0x3d8abf42	0.06774761
124	0xbcd43f3e	-0.025909062
125	0xbe43c8c8	-0.1911956
126	0x3c4ffe7e	0.012694953
127	0x3dc9f76d	0.09861646
128	0x3d9c8a43	0.07643559
129	0x3dde9771	0.10868729
130	0x3c51508a	0.01277555
131	0xbc498f71	-0.0123022655
132	0x3d0b1c8c	0.03396277
133	0x3e2990bf	0.16559123
134	0xbdc05566	-0.093912885
135	0xbd7c0d79	-0.061536286
136	0x3e2291df	0.15875958
137	0xbda270d4	-0.079316765
138	0x3d2fd18d	0.042924453
139	0x3d20feb1	0.039305393
140	0x3dcfc109	0.101442404
141	0xbdc5db9e	-0.09661029
142	0xbc66bdec	-0.014083367
143	0xbd88fda6	-0.066890046
144	0x3dd85617	0.10563295
145	0xbab10645	-0.0013505897
146	0x3cd51a7b	0.026013603
147	0x3d2564a7	0.040379193
148	0xbd1f2342	-0.038851984
149	0x3e0da483	0.13832287
150	0xbe2e86ef	-0.1704366
151	0xba018e0a	-0.0004942125
152	0xbd3cf55f	-0.04613244
153	0xbe03cc51	-0.1287091
154	0xbb503984	-0.0031772563
155	0x3d2c251d	0.04202758
156	0xbdb7ab5c	-0.08968231
157	0x3de67fbb	0.112548314
158	0x3d441958	0.047875732
159	0x3e00efe6	0.12591514
160	0xbd7d90e6	-0.061905764
161	0xbd94e137	-0.07269519
162	0xbdc00800	-0.09376526
163	0xbd6d9558	-0.058003753
164	0xbced7816	-0.028987925
165	0xbd85e4af	-0.065377586
166	0xbd92a2d5	-0.07159964
167	0xbddccf6b	-0.10781749
168	0xbd6ecaf6	-0.058299027
169	0xbce25a96	-0.027631085
170	0xbde2093f	-0.1103692
171	0x3d6c17b0	0.057639778
172	0xbd59aa4d	-0.053140927
173	0xbe3143a2	-0.17310956
174	0xbe2aab7e	-0.16666982
175	0xbd09a221	-0.033601884
176	0xba92646e	-0.0011168846
177	0xbbabfea5	-0.005248862
178	0x3d24d61d	0.040243257
179	0x3cea1143	0.028572684
180	0xbc952537	-0.018206222
181	0xbd970a13	-0.073749684
182	0xbc9e0330	-0.01928863
183	0xbd0e797c	-0.034783825
184	0x3dccad28	0.099939644
185	0xbd407bb0	-0.046992958
186	0x3bb26da5	0.0054451996
187	0x3cd2e2ff	0.025743006
188	0xbc49fba3	-0.012328061
189	0xbcaf86d9	-0.021426605
190	0xbdcc7916	-0.09984033
191	0xbd85351f	-0.06504273
192	0x3d8ed2c0	0.06973791
193	0xbce20070	-0.0275881
194	0xbd932a64	-0.0718582
195	0xbd8e30ec	-0.06942925
196	0xbd841df1	-0.06451023
197	0x3b4fd8a9	0.0031714833
198	0xbd247f72	-0.040160604
199	0x3d27d350	0.040973008
200	0xbd7ea3dd	-0.06216799
201	0xbc40bcff	-0.01176381
202	0xbd6cef03	-0.057845127
203	0xbb807986	-0.0039207367
204	0x3d1298dd	0.035790313
205	0xbd56bf67	-0.05242863
206	0x3e2a5473	0.16633777
207	0x3bd2cd6e	0.0064331805
208	0x3d9c6f7c	0.076384515
209	0x3e193e95	0.1496528
210	0xbd75df8a	-0.060027637
211	0xbd8bc92e	-0.06825481
212	0x3e02afaa	0.12762323
213	0x3da02b32	0.07820739
214	0xbe401104	-0.18756491
215	0x3b02cf87	0.0019960122
216	0x3ce89d85	0.028395424
217	0x3da02fbb	0.07821604
218	0xbdc327b2	-0.09529056
219	0xbd4a319b	-0.049363714
220	0x3d43581b	0.047691446
221	0x3def0eef	0.1167277
222	0xbe0a8f70	-0.1353128
223	0x3dfca2cd	0.12335739
224	0x3afd0783	0.0019304607
225	0xba782f11	-0.00094674627
226	0x3e110326	0.14161357
227	0xbdb4f684	-0.088360816
228	0x3cbc98f2	0.023022149
229	0x3da31e41	0.07964755
230	0xbc0d84b9	-0.008637601
231	0xbe564be8	-0.20927393
232	0x3da94131	0.082643874
233	0xbcfee30d	-0.031114126
234	0xbe36a6ca	-0.17837062
235	0x3e124b67	0.14286576
236	0x3d0dfe49	0.034666333
237	0xbdd88cbc	-0.10573718
238	0x3d38d6e5	0.045126814
239	0xbcdda8ac	-0.027057968
240	0xbd6be3b5	-0.057590205
241	0x3df9c3b1	0.12195528
242	0xbdb8d76b	-0.09025463
243	0x3c769907	0.015051133
244	0x3df51dda	0.11968584
245	0xbcb50a7d	-0.022099728
246	0xbc85098b	-0.016239902
247	0x3cc3f8dd	0.023922378
248	0x3dee6cd2	0.116418496
249	0xbdce1499	-0.100625224
250	0xbd138c83	-0.036022674
251	0xbe2f7495	-0.17134316
252	0x3e121ebd	0.14269538
253	0x3af88592	0.0018960705
254	0xbd11a622	-0.035558827
255	0x3d20596f	0.03914779

fc2.bias f4 [84]
0	0xbdfefaea	-0.12450202
1	0x3dee9c1f	0.116508715
2	0x3bc38ce1	0.005967722
3	0x3d3cf7ce	0.046134762
4	0x3d5d149c	0.053974733
5	0x3e68ca9b	0.22733538
6	0x3db087a6	0.08619623
7	0x3c86afec	0.016441308
8	0x3f044965	0.5167449
9	0xbda53b91	-0.08068002
10	0x3c8aca11	0.016942056
11	0x3edea606	0.4348604
12	0x3e5aa750	0.21352887
13	0xbdf08b42	-0.11745311
14	0xbd975455	-0.07389132
15	0x3ee43811	0.44574025
16	0x3e9b1f51	0.3029733
17	0xbda10344	-0.07861951
18	0x3e9ad4a1	0.30240348
19	0x3d519d55	0.051175434
20	0x3ea2621f	0.31715485
21	0xbe26e6be	-0.16298959
22	0xbda47f58	-0.080321014
23	0xbcb4a032	-0.022049043
24	0x3d8ee2ac	0.06976828
25	0x3f01d4e7	0.5071549
26	0xbd81aa34	-0.06331292
27	0x3e7e7a65	0.24851377
28	0xbd5afef3	-0.053465795
29	0x3e42145b	0.18953077
30	0x3e983e56	0.2973506
31	0xbda11381	-0.07865048
32	0x3eb81988	0.3595698
33	0x3eb3c32d	0.35109845
34	0x3de0a73e	0.10969399
35	0x3c391f3d	0.011298952
36	0xbe12e6b3	-0.14345817
37	0xbd573e04	-0.052549377
38	0x3ea0f1fd	0.31434622
39	0x3f17cdec	0.59298587
40	0xbd572df1	-0.052534048
41	0x3d1a0653	0.037603687
42	0x3c87ddb7	0.016585214
43	0x3e8242d3	0.25441608
44	0x3c3ed6ff	0.011647939
45	0x3ea044a1	0.3130236
46	0x3e4a2e5c	0.19744247
47	0x3d287731	0.041129295
48	0xbdaa3380	-0.08310604
49	0x3d12da67	0.035852816
50	0x3e7e0867	0.24807893
51	0x3d892082	0.066956535
52	0x3e6f6b22	0.23380712
53	0x3c7017f5	0.014654149
54	0xbd02bacd	-0.03191643
55	0x3d6532f1	0.055956785
56	0xbdbac231	-0.0911907
57	0x3defb4d7	0.11704414
58	0x3d78cff5	0.0607452
59	0xbc9ef8a0	-0.019405663
60	0x3ee639cf	0.4496598
61	0x3dcabc3d	0.09899185
62	0x3d1aec68	0.03782311
63	0xbd312d21	-0.04325593
64	0x3e8cbe4b	0.27488932
65	0x3e214448	0.15748703
66	0x3f127fad	0.5722607
67	0x3f096b3c	0.5367925
68	0x3ea74c72	0.3267551
69	0x3e4d35e5	0.2004009
70	0xbdd69da9	-0.1047929
71	0x3e0d43a2	0.13795331
72	0x3e52f040	0.2059946
73	0xbdc305c7	-0.09522586
74	0x3f06c897	0.52649826
75	0x3dcefc74	0.10106745
76	0x3e35454f	0.1770222
77	0x3daa9fc4	0.08331254
78	0xbddb6398	-0.107123554
79	0x3e946bcf	0.289885
80	0xbe0d1ace	-0.13779756
81	0x3f224ac9	0.63395363
82	0x3e0486cc	0.12942046
83	0xbd497b90	-0.049190104

fc3.weight f4 [10, 84]
0	0x3e7df499	0.24800338
1	0x3e0f0ac0	0.13968945
2	0x3e1fb156	0.15594992
3	0x3e2403a3	0.16017012
4	0x3b1402fd	0.002258479
5	0x3e0c5466	0.1370407
6	0x3e59e7e9	0.21279873
7	0xbdbff053	-0.0937201
8	0x3e65eaf8	0.22452915
9	0x3baec406	0.0053334264
10	0x3d8ca6a9	0.068677254
11	0x3dc09968	0.0940426
12	0x3df97975	0.12181369
13	0x39d7a0ce	0.00041127804
14	0x3dcdb8d1	0.100450166
15	0x3d263d78	0.040585965
16	0x3de0e4de	0.10981153
17	0x3ddeef69	0.108855076
18	0x3e79ad2a	0.24382463
19	0x3ccd31fc	0.025048248
20	0xbe03a46c	-0.1285569
21	0x3e92c3cd	0.2866501
22	0xbd7670d2	-0.060166188
23	0x3de3be30	0.1112026
24	0x3d7357ac	0.059409782
25	0xbd3d0bfb	-0.046154004
26	0xbc5a56d2	-0.013326364
27	0x3e768a8a	0.24076286
28	0x3b5e2fc3	0.003390298
29	0xbdd4134a	-0.103552416
30	0xbd4c1656	-0.04982599
31	0xbd655651	-0.05599052
32	0xbdfece4a	-0.1244169
33	0xbe600d36	-0.2188004
34	0x3c95d9d0	0.018292338
35	0xbdca5488	-0.09879404
36	0x3e3fee9e	0.18743369
37	0x3dab3ab7	0.08360808
38	0xbed5825a	-0.41701013
39	0xbebaa669	-0.36455086
40	0x3e1e1fba	0.1544179
41	0xbd28c968	-0.0412077
42	0xbd04df28	-0.03243938
43	0xbeb1af96	-0.34704274
44	0x3dbfb7cb	0.093612276
45	0xbd7d7f08	-0.061888725
46	0x3df1c55f	0.11805224
47	0x3dcbdfea	0.099548176
48	0xbcc23df9	-0.023711191
49	0xbe126267	-0.1429535
50	0xbe8c9985	-0.27460876
51	0xbdd55b6b	-0.10417827
52	0x3e8555eb	0.26042113
53	0x3dfa71a5	0.12228707
54	0xbb821f84	-0.003971042
55	0x3dfcd6c1	0.123456486
56	0xbe6eefa0	-0.23333597
57	0xbc625485	-0.013814096
58	0x3e22321f	0.15839432
59	0xbe642d0c	-0.22282809
60	0xbcdc349e	-0.026880559
61	0x3e4bdc3e	0.19908234
62	0xbd4af37f	-0.049548622
63	0x3d2a5ca4	0.041592255
64	0xbe394938	-0.18094337
65	0xbdb8ea7b	-0.090290986
66	0xbe48f80d	-0.19625874
67	0x3ea4e637	0.3220689
68	0xbd2701df	-0.04077327
69	0x3d7e783d	0.062126387
70	0xbbb81fd2	-0.0056190277
71	0x3e12a0b3	0.14319114
72	0x3d1197bd	0.0355451
73	0xbc79358f	-0.015210523
74	0x3e9d1b41	0.30684856
75	0x3e37ca29	0.17948212
76	0x3d41c108	0.04730323
77	0xbdf705d2	-0.12061657
78	0x3d03cd7d	0.03217839
79	0x3d01bd4a	0.03167466
80	0x3e5bd0dc	0.21466392
81	0xbe207990	-0.15671372
82	0xbe3e2c96	-0.18571696
83	0xbdb2ea1f	-0.08736061
84	0xbd2b319c	-0.041795358
85	0x3cee123a	0.029061425
86	0xbd0e4e64	-0.034742728
87	0x3d0a9e94	0.033842638
88	0xbdee6e1e	-0.11642097
89	0xbe9479bc	-0.28999126
90	0x3de3ac73	0.111168765
91	0x3e9d1dc4	0.30686772
92	0xbe1d630d	-0.15369816
93	0x3ded2939	0.11580128
94	0x3e54acb1	0.20769002
95	0x3dafde92	0.08587374
96	0xbbb75c44	-0.0055957157
97	0x3e233857	0.1593946
98	0xbd499f4e	-0.04922419
99	0xbe815c4e	-0.25265735
100	0xbe1f900f	-0.15582298
101	0xbd991953	-0.07475533
102	0x3a8a629f	0.0010557956
103	0xbe1e489c	-0.15457386
104	0xbdb1409e	-0.08654903
105	0x3e364d3b	0.17802899
106	0xbd8e5fde	-0.06951879
107	0xbc5a98e1	-0.013342113
108	0xbdcfe902	-0.101518646
109	0xbeb7307a	-0.35779172
110	0xbdc7dd1b	-0.097589694
111	0x3e4e1139	0.20123757
112	0xbc227162	-0.009914728
113	0xbe9d036f	-0.30666682
114	0xbd680fb9	-0.05665562
115	0x3e196fb0	0.14984012
116	0xbe76d2b0	-0.24103808
117	0xbe00f60d	-0.12593861
118	0x3e74078c	0.23831004
119	0x3d9acc91	0.07558549
120	0xbd54828c	-0.05188231
121	0x3d79a74c	0.060950562
122	0xbe57fd82	-0.210928
123	0xbe424b61	-0.18974067
124	0xbe8c5b9c	-0.27413642
125	0x3e61cf88	0.22051823
126	0xbdec2745	-0.115309276
127	0x3d7d0164	0.061768904
128	0x3c4dd067	0.012561894
129	0xbd82f1cd	-0.06393776
130	0x3e29f2c7	0.16596518
131	0x3ddbfabf	0.107411854
132	0x3ca1ddb7	0.019759042
133	0x3e2d3950	0.16916394
134	0x3e540a4f	0.20707057
135	0xbd4d2414	-0.050083235
136	0xbe803a48	-0.25044465
137	0x3e85a327	0.26101038
138	0xbdd8117a	-0.105502084
139	0x3e052a6c	0.13004464
140	0xbd31f93a	-0.04345057
141	0x3eb92425	0.3616039
142	0xbbe1fc25	-0.006896513
143	0xbd8d23c7	-0.068915896
144	0xbe1fc13a	-0.15601054
145	0x3e556b9f	0.20841835
146	0xbd63b68f	-0.055594023
147	0x3da20abc	0.07912204
148	0x3e5e00bc	0.21679968
149	0x3cd56fd0	0.026054293
150	0xbe062ab5	-0.13102229
151	0xbd2239c4	-0.03960587
152	0xbb36f412	-0.0027916473
153	0x3e6999d3	0.22812586
154	0xbdbe4a4d	-0.092915155
155	0xbe095edb	-0.1341509
156	0x3dacdf5a	0.084410384
157	0x3dbffd84	0.09374526
158	0xbe949f59	-0.29027823
159	0xbe400d1a	-0.18754998
160	0xbe81257c	-0.2522391
161	0xbdfb5b63	-0.1227329
162	0x3cb07e4f	0.021544604
163	0xbe0ae15b	-0.13562529
164	0x3e413123	0.188664
165	0xbe72dcf4	-0.237171
166	0xbd9f325a	-0.07773276
167	0xbd5d3fe8	-0.054016024
168	0x3e7308a5	0.23733766
169	0xbdbdd445	-0.09269003
170	0x3cccdac2	0.025006656
171	0xbd8c3393	-0.068457745
172	0xbe0e1d4b	-0.13878362
173	0x3de5b193	0.1121551
174	0xbd6c2a14	-0.057657316
175	0xbe70a06d	-0.23498698
176	0x3ea17e2f	0.31541583
177	0xbdaf2731	-0.08552397
178	0xbe17df0b	-0.14831178
179	0xbcc5798b	-0.024105808
180	0xbd3e7a5d	-0.046503413
181	0x3e21de9f	0.1580758
182	0x3d4eb0bf	0.050461527
183	0x3ea216af	0.3165793
184	0x3d85e2b9	0.065373845
185	0x3dda3966	0.10655479
186	0x3dab35eb	0.083598934
187	0xbd058394	-0.032596186
188	0x3e9f3c3a	0.31100637
189	0x3e43718d	0.19086285
190	0xbc60ea1f	-0.013727694
191	0x3df65942	0.12028743
192	0xbe319a58	-0.17344034
193	0x3d57b57d	0.052663315
194	0x3dcca0e3	0.09991624
195	0xbd95ba55	-0.07310931
196	0x3c10bc43	0.008833948
197	0xbdc83351	-0.09775413
198	0xbc781d86	-0.015143758
199	0x3caa1faa	0.020767052
200	0x3df2c053	0.11853089
201	0x3e863824	0.26214707
202	0xbe231c80	-0.1592884
203	0xbc48f021	-0.012264282
204	0x3c22d0f8	0.009937517
205	0xbdb82ea5	-0.08993272
206	0x3e6daba1	0.23210002
207	0x3e016ac2	0.12638381
208	0x3e211227	0.15729581
209	0xbdf80e13	-0.121120594
210	0xbcd37f29	-0.02581747
211	0x3e06af5f	0.13152836
212	0x3df34c60	0.11879802
213	0x3e13b6f6	0.14425263
214	0x3afd4ecf	0.0019325855
215	0xbbcaaa40	-0.006184846
216	0x3da7de3e	0.08196686
217	0x3cf50bce	0.029912855
218	0xbd5a3734	-0.053275302
219	0xbe3349bd	-0.17508598
220	0x3db4c17f	0.08825969
221	0x3d379f57	0.044829693
222	0xbde429c8	-0.11140782
223	0xbe2950bb	-0.16534702
224	0x3e18cc84	0.14921767
225	0xbd453c7a	-0.048153378
226	0x3d12da1c	0.035852537
227	0x3d561bc4	0.052272573
228	0x3ded2ae0	0.115804434
229	0x3df4c11d	0.11950896
230	0xbd8d7f3f	-0.06909036
231	0x3c70f31b	0.014706398
232	0x3b5dd646	0.003384964
233	0xbd25ecdf	-0.0405091
234	0xbd8bdeee	-0.0682963
235	0xbe0b5e35	-0.13610156
236	0x3da0b14b	0.07846316
237	0x3dc7f144	0.09762815
238	0x3e4f74a3	0.20259337
239	0x3e96ce83	0.2945443
240	0xbcfeea63	-0.031117624
241	0xbdd9f524	-0.1064246
242	0x3e86cb08	0.26326776
243	0x3e2010b5	0.15631373
244	0x3e452555	0.19252522
245	0x3bab3684	0.0052250046
246	0x3e21261d	0.15737195
247	0xbc8dcef8	-0.017310604
248	0x3ba11bf0	0.0049166605
249	0xbcfa01fa	-0.03051852
250	0x3de4d6d3	0.11173787
251	0x3cce9462	0.025217239
252	0x3c97aecd	0.018515969
253	0xbd0b0259	-0.033937786
254	0xbd4d4761	-0.0501169
255	0x3d7bc0b6	0.06146308

fc3.bias f4 [10]
0	0xbe643df4	-0.22289258
1	0xbf3902e5	-0.7227004
2	0xbe663546	-0.2248126
3	0x3f126cab	0.57197064
4	0x3f4a62a1	0.79056746
5	0x3d4ade0d	0.04952817
6	0x3e35914b	0.17731206
7	0xbe359444	-0.1773234
8	0x3e21485d	0.1575026
9	0xbe6d7577	-0.2318934
