cifar_net.pth (torch, 259220 bytes, 10 tensors)

conv1.weight f4 [10, 3, 5, 5]
000000 41 32 d5 bc af f9 98 be e8 77 f7 bd c2 13 2b 3e
       -0.02602494 -0.29877993 -0.12083417 0.16706756
000010 24 5c af 3d e3 58 64 bd 91 53 30 3e ac 9a b7 3e
       0.08562496 -0.05574883 0.17219378 0.35860193
000020 ea d9 8d 3c 11 ad 39 be 63 c4 0b 3e b7 f7 20 3f
       0.017315824 -0.18132426 0.13649134 0.6287798
000030 9f ca da 3e 7f a4 df bc a1 ba 80 be c6 a5 06 bd
       0.42732713 -0.027300118 -0.25142387 -0.032872938
000040 6c ca 0a be 78 ba a9 be 55 17 24 3d 49 f2 3c 3e
       -0.1355378 -0.33150077 0.040061314 0.184518
000050 87 9f ae 3c de 7d e6 be 4d e0 c3 be a5 73 05 be
       0.021316303 -0.45017904 -0.38257065 -0.13032396
000060 03 cb b2 3d 0d 62 52 bd e8 e3 cd be 03 e9 01 be
       0.08730128 -0.05136304 -0.4021294 -0.12686543
000070 f0 3e 89 3e 0d 64 0f 3e 1f f9 2a 3d 67 a0 41 3e
       0.2680583 0.1400301 0.041741487 0.18908845
000080 d7 77 ad 3e 54 8c df b7 52 bc 5b be 11 5a 82 bb
       0.33880493 -2.6649017e-05 -0.21458557 -0.003978022
000090 2e 46 12 3f 27 b9 d6 3e cc a5 0a be de d4 85 be
       0.57138336 0.41938135 -0.13539809 -0.26138967
0000a0 7a 57 09 bd 34 8e 4f be f6 c6 80 be 80 c4 a4 bd
       -0.03353069 -0.2026909 -0.25151795 -0.08045292
0000b0 dc a7 e8 3d 01 6c 68 3b 9a 79 4d be 49 9e 8e be
       0.11360142 0.0035464766 -0.20065919 -0.27855137
0000c0 7f f5 14 bd ee e3 09 3e 57 a6 74 3d 1d 54 ac be
       -0.036366936 0.13465855 0.059728947 -0.33657923
0000d0 7a 88 62 be c8 2c 99 3e 71 17 8f 3e 10 44 b3 bc
       -0.22122374 0.29916978 0.27947572 -0.02188304
0000e0 2f 50 73 3e aa d0 66 3e 8f 31 aa bd e5 9e cf bd
       0.23761056 0.22540537 -0.08310234 -0.101377286
0000f0 6a 65 07 3d 31 a7 1b 3f b3 62 b8 3e ac f3 4b be
       0.0330557 0.6080199 0.36012802 -0.19917172
000100 b1 54 3b be ec 04 63 3b 0c c8 90 be c0 a1 ff bd
       -0.18294026 0.0034640385 -0.28277624 -0.12482023
000110 ed 39 a8 3d 34 bc 06 3e 36 08 9e bc d9 2a cf be
       0.082141735 0.13157731 -0.019291025 -0.40462378
000120 39 70 bc be 16 3b ae bc 61 f4 6e 3e 8b 7c a4 3e
       -0.3680437 -0.021268409 0.2333541 0.3212627
000130 44 d7 34 3f 9c ea 3d 3f 44 46 2e 3f 25 2f a1 3e
       0.7064097 0.7418611 0.68075967 0.3148128
000140 0d c1 97 3e 13 b9 c3 3e 14 ae 4a 3e e0 43 d4 3d
       0.29639474 0.38227138 0.19792968 0.10364509
000150 41 35 aa 3a d0 f0 d4 bd ec 42 e0 3d fb bf fb 3d
       0.0012985842 -0.10397494 0.10950264 0.12292477
000160 a7 e6 88 3d bd 36 9f 3d f3 9f 90 be 26 cc 44 be
       0.066846184 0.077741124 -0.28247032 -0.19218501
000170 24 54 59 be 2b b0 ca bd d3 99 8b be c5 8e fb be
       -0.21223503 -0.098968826 -0.27265796 -0.49132362
000180 9a 0c de be 3f 5e 1a bf c6 39 d3 be 56 d1 04 bf
       -0.4336899 -0.6030006 -0.41255015 -0.5188192
000190 db 24 22 bd 30 33 1d bd be a9 50 3e 15 c7 aa 3e
       -0.03958593 -0.038378894 0.20377252 0.33355013
0001a0 38 99 14 3e 0f 0e 85 be e8 70 e0 be f5 2d de be
       0.14511573 -0.25987288 -0.4383614 -0.43394437
0001b0 05 f3 8f be 72 4d 9f be 48 1c 79 be 55 94 4b be
       -0.28115097 -0.31113774 -0.24327195 -0.19880803
0001c0 81 10 36 be aa 47 2d 3d a7 78 2c 3b 0f 4a 64 3d
       -0.17779733 0.042304672 0.0026317032 0.05573469
0001d0 09 25 70 3d 74 40 33 bd 2b 3b b2 3d 61 9a c1 bc
       0.05862907 -0.04376264 0.08702692 -0.023633184
0001e0 b1 5e fc bc 51 77 df 3d 0d 94 95 bb 94 c5 29 3e
       -0.030806871 0.1091143 -0.004564768 0.16579276
0001f0 1f 04 e6 bd d4 c6 bb bd ea a3 32 be 79 b4 f1 3c
       -0.11231255 -0.09168783 -0.17445341 0.029505001
000200 75 3e 75 3e 6d 35 92 3d d6 39 c1 be 8b 20 c6 be
       0.23949607 0.071390964 -0.37739438 -0.38696703
000210 06 0b 18 bf a5 6a c7 be fb df 0d be 88 18 ca bd
       -0.5939182 -0.3894855 -0.13854973 -0.0986796
000220 f2 01 f2 bd a8 95 40 be 02 6c 2d 3e a1 42 4c 3d
       -0.11816777 -0.1880709 0.16935733 0.04986823
000230 bb c8 11 3e 1e f0 d9 3e 9c 59 70 3e d2 fa f5 3e
       0.14236729 0.42566007 0.23471683 0.48042923
000240 8a df 4c 3e 2c c8 c8 3e 5e 40 00 3f 48 d5 83 3e
       0.20007148 0.3921522 0.50098217 0.25748658
000250 7f c5 d5 3e 64 59 c9 3d 93 83 9e be 12 d7 57 3e
       0.4175224 0.09831503 -0.30959758 0.21078137
000260 18 a3 0e be 15 60 6b 3e f5 bd db bc 0b 16 24 bd
       -0.13929403 0.22985871 -0.026823977 -0.040060084
000270 2f ab 4e 3e cc e8 4a bf f5 2f 06 3e f9 7e 91 3e
       0.20182489 -0.7926147 0.13104232 0.28417185
000280 38 61 3e 3e 2f 76 3c 3f 8d 83 aa bf f2 01 19 bd
       0.18591774 0.73617834 -1.3321396 -0.03735537
000290 db 0a eb 3e 90 c6 32 3e 67 ae 3b 3f 7f 65 29 bf
       0.4590672 0.17458558 0.7331299 -0.66170496
0002a0 32 55 46 be da fa 97 3a 06 b8 94 be e8 c7 b2 3d
       -0.19368437 0.0011595145 -0.2904665 0.08729535
0002b0 99 d5 a2 3d 1a 0d 30 3d 2e 13 0f be 98 f8 84 bb
       0.07950897 0.042981245 -0.1397216 -0.004057955
0002c0 77 fc 1c 3e c2 b4 b4 be f9 36 4d 3e 50 70 c8 3c
       0.15330683 -0.35294157 0.20040502 0.024467617
0002d0 70 35 e8 3d d4 87 ce 3e 50 83 5b bf cb ab aa 3d
       0.113383174 0.40338004 -0.8574724 0.08333548
0002e0 92 04 9c 3e 0a f6 90 3e fa 11 1c 3f 19 81 ac bf
       0.30472237 0.28312713 0.6096493 -1.3476897
0002f0 b8 41 f4 bc 90 dd 03 3f 0c f7 01 3e 86 7a 48 3f
       -0.029816493 0.5150995 0.12691897 0.78311956
000300 a3 3b 38 bf 6c 1f 54 be fb be 91 3d 3f 3c bb bc
       -0.71966 -0.20715111 0.07116505 -0.022855876
000310 61 97 5a 3e fe 68 ab 3b ea b4 8d bc 6d 2a a0 3d
       0.21346809 0.005231022 -0.01729818 0.07820592
000320 d8 79 68 be 96 ae 0a 3e 44 71 6c be a3 72 0e 3e
       -0.2270273 0.13543162 -0.23090082 0.13910918
000330 72 1f 3e be 03 74 19 bd d3 1f d5 3e 1d 78 54 bf
       -0.18566683 -0.037464153 0.41625842 -0.8299578
000340 3c 84 6b 3e b1 ad 39 3e 3f 0d 59 3d 55 2e 28 3f
       0.22999662 0.18132664 0.052991148 0.656957
000350 79 6e 7e bf 5a ed ae 3c 3c 5d a5 3e 41 57 bf 3d
       -0.9938732 0.021353412 0.32297695 0.09342814
000360 5b 2b 21 3f 66 26 15 bf d3 7d 37 be 4e 25 96 3d
       0.6295678 -0.58261716 -0.17919092 0.07331334
000370 5c aa 48 be 12 0a 5a 3e fa 9f 03 3e 05 4d 27 bd
       -0.19596237 0.21292904 0.12853995 -0.040844936
000380 89 a4 44 be 10 16 0f be 7d a8 19 be d0 5f 52 be
       -0.1920339 -0.1397326 -0.1500568 -0.20544362
000390 ec 1b 7b be 9d 53 9c be ff 06 b1 3b 8b 25 83 3d
       -0.2452237 -0.30532542 0.0054024453 0.06403645
0003a0 47 de cc 3d e9 94 b3 bd 1a 36 fe bc 73 46 3d be
       0.100033335 -0.08768637 -0.031031657 -0.18483905
0003b0 d7 0e b5 bc 2d 21 0b 3e 80 b4 89 bb 5c 12 01 3e
       -0.022101803 0.13586874 -0.0042024255 0.1260466
0003c0 90 59 8a be ed 82 4a be 7b 11 8e be 30 d9 68 3c
       -0.27021456 -0.19776507 -0.27747712 0.014211938
0003d0 16 74 e9 bc d9 c9 61 be 56 92 b7 be 5e ae a2 be
       -0.028497737 -0.22049655 -0.35853833 -0.31773657
0003e0 39 2f b7 be d2 6d 00 be c3 31 74 be 3d 19 ed 3c
       -0.35778216 -0.12541893 -0.23847108 0.028942699
0003f0 4a 30 a9 bd e8 18 0f be 19 ed 81 be 1b 61 2d be
       -0.082611635 -0.13974345 -0.25376204 -0.16931574

conv1.bias f4 [10]
000000 df 05 f5 be ec 35 05 bf 8d 07 84 be d1 d5 13 bf
       -0.47856042 -0.52035403 -0.2578701 -0.5774813
000010 90 de a7 be 35 38 b8 be ba 83 27 bf 57 6e 5f be
       -0.3278699 -0.35980383 -0.65435374 -0.21819435
000020 24 ac 92 3e 9f ba c8 be
       0.28646958 -0.3920488

conv2.weight f4 [16, 10, 5, 5]
000000 d3 4f b6 3d 72 e4 24 3d 7a b2 fb bd 1a d6 1b be
       0.08901944 0.040256925 -0.12289901 -0.15218392
000010 cc fd aa bd 67 5a 4c 3d 2f ad c3 3d 3c 32 77 be
       -0.08349189 0.049890902 0.095545165 -0.24140257
000020 dd ad 75 bb ff 4a 1b 3d b6 fc 60 bd 7a 0a 11 3e
       -0.0037487664 0.03791332 -0.054928504 0.14164153
000030 70 37 37 3e 39 b5 a7 bc f0 84 b1 bd b2 91 36 bd
       0.17892241 -0.020472156 -0.08667934 -0.04457254
000040 19 06 00 be 40 35 6d 3d d6 f9 9a 3e df 40 08 bc
       -0.12502326 0.05791211 0.30268735 -0.008316248
000050 aa be 08 bd d4 f2 8d bc 91 0f 91 bd 18 83 a4 bc
       -0.033384956 -0.017327704 -0.07083047 -0.020082042
000060 d8 10 fb 3c a8 ca 0e bc f2 48 94 3c 31 ee b1 bb
       0.03064768 -0.008715309 0.01810119 -0.005430006
000070 0f 7e e8 bc 9c e8 16 be c7 b0 a2 bc b2 d4 d2 bc
       -0.028380422 -0.14737171 -0.019859685 -0.025736187
000080 87 44 c8 bd 83 1b 4d be b0 cf 70 bd a2 54 42 be
       -0.097786956 -0.20030026 -0.058791816 -0.18977597
000090 be 6b a2 bc a0 a4 d3 3b 9b 62 b4 bd cd 87 87 be
       -0.019826766 0.006458834 -0.0880787 -0.26470795
0000a0 b8 10 b6 be 1f 41 c9 3b 16 b1 23 3e c5 d3 0e bd
       -0.3555963 0.0061417962 0.15985522 -0.034869928
0000b0 29 51 8e be 2a 71 15 be 9c 48 6f be 8a e8 ae bd
       -0.27796295 -0.1459395 -0.23367542 -0.08540447
0000c0 05 4a e9 3c a1 a5 8c bd 07 da 97 be 4e 24 a1 3e
       0.028477678 -0.06867529 -0.2965853 0.3147301
0000d0 5b d6 cb 3d d4 c4 22 3d e2 29 0a 3e 1c 8e 4f 3d
       0.099529944 0.03973849 0.1349254 0.050672635
0000e0 e5 63 c6 be a7 94 54 3e b1 da a6 bc a9 13 04 bd
       -0.38748088 0.20759831 -0.020367952 -0.032245312
0000f0 f4 d3 0e 3f 2f e5 30 be b0 bd b5 be 37 5c 77 3e
       0.55792165 -0.17274927 -0.35496283 0.24156271
000100 8d 29 a5 bd 95 f2 a6 bd 85 d0 d1 3e 02 4d 08 be
       -0.08064566 -0.081517376 0.409794 -0.13310626
000110 73 44 45 be e7 2b 9d bd ce a2 f1 be 23 2c 46 be
       -0.19264393 -0.07674389 -0.47194523 -0.19352774
000120 1b 56 d9 3d 85 33 e3 bc 46 b1 c0 bd f3 8a b1 3e
       0.106121264 -0.027734527 -0.09408812 0.34676322
000130 6d 92 bd 3d c6 7c b4 3d 1c df 6d 3d e4 c0 2e 3c
       0.09256444 0.08812861 0.0580741 0.010666106
000140 6c 06 86 3e 10 22 61 3e 3a d4 a6 bd b9 89 b6 bd
       0.26176775 0.2198565 -0.08145948 -0.08912987
000150 a4 93 c4 bd 99 5f c4 3c 11 f6 86 3e e5 ca 14 3e
       -0.09598473 0.023971366 0.2635961 0.14530523
000160 fb 01 9f bd 47 21 48 be 29 e0 0a 3c f6 5d 1a bd
       -0.077640496 -0.19543944 0.0084762955 -0.037687264
000170 b4 71 77 3e b3 38 97 3d 09 95 ac bd c0 6d 09 3e
       0.24164468 0.073838614 -0.08426864 0.13420773
000180 d0 a1 b8 bc c1 65 3d 3d a0 01 7e bd 46 02 51 be
       -0.022538096 0.04623962 -0.06201327 -0.20411023
000190 77 ea c6 bd d9 0a 82 b9 d6 24 68 3e a4 0a db 3d
       -0.09712689 -0.00024803614 0.22670302 0.10695389
0001a0 85 3c 89 3c 3f 11 ae 3b 06 34 dc bd f4 6e 08 bc
       0.01675249 0.0053121145 -0.1075211 -0.008327235
0001b0 ac ea bc bb 25 61 86 bd c3 0b 05 bd ce 06 46 3d
       -0.0057652798 -0.065614976 -0.03248192 0.048346333
0001c0 a1 15 0d be 7d 25 a8 bd 1d eb ec 3d e9 19 bf be
       -0.13777782 -0.08210275 0.11568282 -0.37324455
0001d0 5e 86 83 bd 7f ae 87 3e 50 d6 ae 3d c5 4a 70 be
       -0.06422113 0.26500317 0.085369706 -0.23466022
0001e0 f9 dc 78 be c9 8a ad be c9 03 db bd e1 c9 78 3e
       -0.24303044 -0.33894947 -0.10694081 0.2429576
0001f0 af 6f 03 3e 21 95 71 3e 16 6c 64 be 41 81 1e be
       0.12835573 0.23592044 -0.22306857 -0.15478994
000200 c7 23 cd bd d5 d1 2e be a6 b0 95 3d 4a 7d bb bd
       -0.100165896 -0.17072232 0.07309084 -0.09154756
000210 36 2f 66 be 5b f1 0a 3e 00 ec 53 bd 49 64 0f be
       -0.22478947 0.13568632 -0.05173874 -0.140031
000220 51 6e 08 3e 38 be 94 bd 77 86 10 3d 90 75 6d bd
       0.13323332 -0.07262844 0.035284486 -0.057973444
000230 1b ad 26 be 0d 6b 99 bd 20 7b 7b 3e 4c 69 f9 3c
       -0.16276972 -0.074911214 0.24558687 0.030445717
000240 8b 2a 0a 3e c1 6c 74 bc 16 72 1a be 49 87 cc bd
       0.13492791 -0.014918507 -0.15082583 -0.09986741
000250 60 95 06 bd 37 c6 05 3e 81 72 b4 3d 8a 82 19 3c
       -0.0328573 0.13063894 0.088109024 0.009369502
000260 b2 9d 83 3d cc 92 5e bd 44 63 06 3d d5 e9 4f 3e
       0.06426562 -0.054339215 0.03280951 0.20304044
000270 78 e0 be bc 54 b8 a6 3c 5d 67 0f bd 1c be 42 bd
       -0.023300394 0.020351566 -0.035010684 -0.047544584
000280 9c d3 dc 3d f9 90 96 bc bc 55 cf bd 4e c0 ab 3b
       0.10782549 -0.018379675 -0.101237744 0.0052414304
000290 1b 79 2f bd 5f 0c 45 3b 21 dc 1e 3e 26 c1 f1 bc
       -0.042840105 0.0030067188 0.1551366 -0.029511046
0002a0 91 be 19 be a5 a5 39 bd 50 6c fd bd 7b ff e9 bd
       -0.15014102 -0.045323987 -0.123741746 -0.11425682
0002b0 d0 da 5c 3d 8d 76 22 bd e1 89 07 be 3a eb bc bd
       0.053919613 -0.03966384 -0.1323619 -0.092245534
0002c0 08 c2 01 3d 4a 6f 99 3d 2a d1 f1 3d 99 6b 5c 3e
       0.031679183 0.0749193 0.11807473 0.2152542
0002d0 96 48 98 be 55 ed f8 bc ba c0 20 3e 29 1b ff 3d
       -0.2974288 -0.030386606 0.1569852 0.12456352
0002e0 39 9d b0 3d 0e 0f 8e be 55 3d 17 be 1c 22 af 3d
       0.08623738 -0.2774586 -0.1476949 0.08551428
0002f0 fa 51 13 3d 07 be 4b bd fa 1f 12 be 03 cf 3e be
       0.03596685 -0.04974177 -0.1427001 -0.18633656
000300 4b 09 ce bd 61 49 a8 bc ae 9a 30 3e 17 40 8f be
       -0.10060366 -0.020542802 0.17246506 -0.27978584
000310 bb 54 ea bd 0e b6 55 bc 62 09 0f be 05 62 26 3c
       -0.11441942 -0.0130438935 -0.13968423 0.010155206
000320 f7 11 da bc e7 81 b8 bc 82 39 91 3d 98 be 0f be
       -0.026619894 -0.02252288 0.07091047 -0.1403755
000330 f9 02 fc bd 01 49 f0 bc c4 4a 53 bd bc 07 8f bd
       -0.123052545 -0.029331686 -0.051584974 -0.06983897
000340 e9 b6 63 bd ba 4a 26 be 9a 44 56 bd 09 da 03 be
       -0.05559436 -0.16239443 -0.052311517 -0.12876143
000350 22 1f a7 bd a2 89 5e be eb 7e 7c be a3 f7 8c bd
       -0.08160235 -0.2173219 -0.2465779 -0.068831705
000360 24 7c a5 bd 10 44 c9 bd b3 d5 56 be f0 1d 59 be
       -0.080803186 -0.09827435 -0.20979957 -0.21202826
000370 1a 48 9e bd 19 c8 52 bd 18 fe b0 bd 2c 9d 31 be
       -0.07728596 -0.05146036 -0.086422145 -0.17345113
000380 3a 77 76 be 6e 3f a0 bc bf 16 d2 3c 13 36 b9 bc
       -0.24068919 -0.019561496 0.025645612 -0.022608792
000390 03 3a a6 bc f3 43 2c be 03 24 80 3d f4 e5 54 bd
       -0.020291334 -0.16822796 0.06256869 -0.051977113
0003a0 4d cb af 3d f3 e0 c3 bc ba ab ed bd 2e f5 a5 3e
       0.085836984 -0.023910975 -0.1160502 0.3241362
0003b0 0a 80 46 3d ab e7 de bd ae dc 86 3c 9d b7 0a be
       0.04846195 -0.10884031 0.01646265 -0.13546605
0003c0 da f3 ad 3c 3b d0 bf 3e 49 ca 25 3e e1 86 03 be
       0.021234442 0.37463555 0.16190447 -0.12844421
0003d0 12 bd 07 be 2e 1b 93 bd 87 1c 3e 3e d7 f2 74 3e
       -0.13255718 -0.071829185 0.1856557 0.23920761
0003e0 67 01 f6 3d 79 23 0c 3d 7b 4d 36 3d f5 3a 9a bd
       0.12011986 0.034213517 0.044507485 -0.075307764
0003f0 a2 8a ea 3d 01 83 37 3e a9 85 e8 3d 37 b0 24 bd
       0.11452223 0.17921068 0.11353619 -0.040207114

conv2.bias f4 [16]
000000 33 e4 07 3f e8 3f f1 3e dd 8e 50 bf 35 73 0c 3e
       0.5308258 0.4711907 -0.8146799 0.13715823
000010 87 9b 47 3e f8 3d aa 3c da d2 f8 bc 7a d3 10 3e
       0.19492923 0.020781502 -0.03037398 0.14143172
000020 4b 47 22 3f 0e 6b c1 3f 87 c3 32 3f 10 fd ae 3c
       0.63390034 1.5110795 0.698296 0.021360904
000030 95 b9 05 bf c1 14 8a 3f e6 8b 1d bf 61 70 2d bf
       -0.522363 1.0787584 -0.61541593 -0.677496

fc1.weight f4 [120, 400]
000000 d3 64 89 3b 25 f6 50 bc 91 5e a2 bc 81 ed b2 bd
       0.0041929274 -0.012753998 -0.019820483 -0.087367065
000010 cc 5c 5b bd c4 b6 b5 bd 34 1b 00 bd c7 25 12 3d
       -0.053555295 -0.088727504 -0.031275943 0.03568056
000020 ed 76 0f 3c d2 13 d8 bb 3c 9e 9c bd 26 01 89 3c
       0.008756381 -0.0065941596 -0.07647368 0.01672418
000030 19 5d c1 3d cf d2 f5 bb ef 1f 21 3d b7 64 c4 bd
       0.09441585 -0.007501937 0.039337095 -0.09589522
000040 86 49 08 bd bd 7d 8b 3d 22 93 b1 3d a5 50 8c 3d
       -0.033273242 0.06811092 0.086706415 0.06851319
000050 05 1c ad bd e1 15 86 bd eb 50 5b 3d a0 00 65 3d
       -0.0845261 -0.06547142 0.053543966 0.0559088
000060 2a 25 c4 3d 32 7d 2b 3d 1a 84 85 39 89 7b 03 3d
       0.09577401 0.041867442 0.0002546616 0.032100234
000070 37 17 7b bd a8 3f b2 bb ba 8c ba bd 16 57 b9 3c
       -0.061301436 -0.0054397173 -0.09108873 0.022624534
000080 9a 91 ca 3c e2 a1 9a bd cf b4 fc bc db 15 84 bd
       0.024727631 -0.07550408 -0.030847935 -0.06449481
000090 fe 24 3f bd c8 5d dd 3c e4 55 f3 bc 6e 31 c0 3c
       -0.046666138 0.027022257 -0.029704042 0.02346107
0000a0 2b 7d ab bd e1 40 83 bd 38 9f c0 ba fa a0 84 bd
       -0.08373483 -0.06408859 -0.0014695888 -0.06476016
0000b0 32 f7 98 bc 1e a5 4e bd 49 18 87 bc fa 27 2a 3d
       -0.01867256 -0.050450437 -0.016491072 0.04154203
0000c0 8f 50 ed 3c 10 0e 17 3d 9f 3d ec bc e8 97 05 bc
       0.028969077 0.036878645 -0.028837977 -0.008153893
0000d0 16 b4 3f bc 35 91 a2 bd 8b 03 b7 3c e9 8e 83 3c
       -0.011700651 -0.07937852 0.022340557 0.016059356
0000e0 f6 43 de bc 5f a5 26 3d c8 c8 09 3d 70 09 60 bb
       -0.027132016 0.040685054 0.033638746 -0.0034185313
0000f0 ba eb a9 3c db 4f bb bd f3 02 af bd d2 7d eb 3b
       0.020742286 -0.091460906 -0.085454844 0.00718663
000100 99 a1 ef 3d fc b9 41 3c b4 e2 d8 bd f8 c4 a8 bd
       0.11700744 0.011824127 -0.10590115 -0.08240694
000110 a9 ee e3 bb 99 17 a6 3d b8 c0 55 bd 38 40 17 bc
       -0.0069559407 0.0810997 -0.052185744 -0.00923162
000120 af fa 90 bd b4 4c dd 3c 44 7d 72 bb 69 48 7c 3d
       -0.07079064 0.027014114 -0.0037000934 0.061592493
000130 c8 b7 0f 39 e4 9c ad bd 14 c3 96 bd 26 42 36 bd
       0.00013706007 -0.0847719 -0.07361427 -0.044496678
000140 0b 6d 71 bd a8 d8 8e 3c 7f 1d 13 bc fb 95 a1 bc
       -0.058941882 0.017437294 -0.0089792 -0.019724837
000150 ea ad 60 bb d9 64 25 bc 54 2a 53 3a 75 ce 59 bd
       -0.0034283348 -0.010094845 0.00080553186 -0.05317541
000160 2e 8d ad bc 54 42 92 bc df d7 21 bd 05 2b 8a bd
       -0.021185484 -0.017853893 -0.03951251 -0.067464866
000170 54 3c 53 bd a8 dd c9 bc fb 75 ed 3d 12 6f c3 bd
       -0.051571205 -0.024641827 0.115947686 -0.09542669
000180 f6 78 b1 bd d7 82 f2 bc f4 c8 fa bc c0 4f 61 3d
       -0.086656496 -0.029603405 -0.0306134 0.055007696
000190 92 b9 f1 3d c2 c4 98 3d 9e f6 51 3d 72 f3 62 3d
       0.11802973 0.074594036 0.051260583 0.05540795
0001a0 3e 82 68 bd ed 33 0f 3e 1c 09 1d 3d d4 6d c1 3d
       -0.056764834 0.13984652 0.038338766 0.09444776
0001b0 a7 f5 a0 3d 1c 7c ed bb 1f 77 51 3c ac 2a ae 3d
       0.078593545 -0.007247461 0.012784748 0.08504233
0001c0 b2 d5 ca 3c bd 0a 72 3c 43 a6 bd 3c e5 6c a4 bc
       0.024760101 0.014773068 0.023150569 -0.020071456
0001d0 d2 82 5a 3d 54 0a 3d 3d 68 99 8b bd c6 b4 fe bc
       0.053347416 0.046152428 -0.06816369 -0.031092059
0001e0 5b 41 53 bc 31 a4 cf bc 3d d0 04 3c 78 2b 0e bd
       -0.012894 -0.025346847 0.0081062885 -0.034709424
0001f0 3e 7c cc bd fa c2 aa 3d 93 fc 0c 3d b8 cf 21 bd
       -0.09984635 0.0833797 0.03442056 -0.039504737
000200 a2 02 e3 bb ac e5 3f bd 54 5e bb bb d0 c6 4a 3d
       -0.006927804 -0.04684989 -0.005718032 0.04950601
000210 0f 5f 0c 3c 60 73 12 3c 41 a1 7f bd 82 3d 0d bc
       0.008567586 0.00893864 -0.062409643 -0.008620622
000220 17 62 ab 3d ff 52 c7 3d 17 ff 71 bb 66 c9 a5 bb
       0.083683185 0.09732627 -0.0036925727 -0.005059409
000230 e4 7f d3 bd 5f fd 3a 3d 48 96 21 3e c9 bf b6 3d
       -0.103271276 0.04565179 0.15779984 0.08923299
000240 18 b1 67 3c ba 0f dc bd 3f fc 8a bc aa 14 70 3b
       0.0141413435 -0.10745187 -0.016965983 0.003663341
000250 9e 37 a8 3c 09 28 ea 3d 12 8c 6d 3c 5d 88 ab bc
       0.020534333 0.11433417 0.014498727 -0.020939047
000260 a8 f2 33 bd 8a 23 28 bd df 3f 0d bd 7b 68 28 3d
       -0.043932587 -0.041049518 -0.03448474 0.041115265
000270 91 7c a7 bb 0f 07 1c bd d2 47 7e 3c c1 5d 94 bc
       -0.005111285 -0.03809267 0.015520053 -0.018111112
000280 b9 e4 cd 3c c3 53 33 3d e7 27 dc 3c 09 66 46 bc
       0.025133478 0.043781053 0.026874496 -0.012109288
000290 8d 09 2b bb 14 78 0d 3d c5 e7 80 bc 8c f7 f3 bc
       -0.0026098222 0.034538344 -0.015735516 -0.029781125
0002a0 dd 06 fd 3c 40 51 e6 3b b2 a9 4a bd 51 0e 6b 3c
       0.030887062 0.0070287287 -0.04947824 0.014346675
0002b0 67 af 29 bd 73 4c aa 3c 2e 6e 52 3c 89 78 9b bd
       -0.041427042 0.020788407 0.012843652 -0.0759135
0002c0 ff 50 5c bd 3a 43 93 bd 2c 60 9a bd 0f 04 41 bc
       -0.05378818 -0.07190557 -0.075378746 -0.011780753
0002d0 66 f9 b9 bc 3b be 59 bd ff 5f d7 bc 9f 22 3e 3c
       -0.02270193 -0.053159934 -0.026290892 0.011604934
0002e0 91 a5 5f bd 3f cd 9f bd 55 0c 2d 3c 4d e8 7f bb
       -0.054601256 -0.078028195 0.010562022 -0.0039048374
0002f0 c7 66 8d bc 74 9f 21 bd 70 84 38 bc 36 7e 4a 3c
       -0.017260922 -0.039458707 -0.011262044 0.012359193
000300 bf c2 5b bc dc 5e 28 3b eb 47 ed bc b3 90 6f bd
       -0.01341313 0.0025691306 -0.028964957 -0.058487605
000310 75 19 02 3c 55 44 db 3b 80 59 6c bd db d8 49 bd
       0.00794064 0.0066914954 -0.05770254 -0.049279075
000320 45 fe 15 bd 31 3c b6 3d e7 9e d7 3d 03 25 bb bd
       -0.036619443 0.08898199 0.10528355 -0.09137919
000330 a3 a4 d9 bd ef 54 0c bd 79 bd b5 3c b3 10 1f 3d
       -0.10627105 -0.034260686 0.022185074 0.038834285
000340 6e 15 82 3d 4d 98 18 bd 7a fc f0 bc f1 61 14 bd
       0.06351744 -0.03725462 -0.029417265 -0.036226217
000350 65 5f 84 bd e4 05 52 3d 97 d4 3b bd 12 20 3f 3c
       -0.064635076 0.05127515 -0.04585704 0.011665361
000360 35 ca a8 bd b5 a6 89 bb 13 65 68 3a 1c d0 0a 3d
       -0.08241693 -0.004200781 0.0008865159 0.033889875
000370 55 8f 8a 3d a5 1b dd bb d7 2a d7 bb a0 76 65 bb
       0.0676562 -0.0067476803 -0.006566386 -0.0035013333
000380 2c ad 08 bd ce b7 3f 3d fd cb f0 3c ef 99 34 3d
       -0.033368275 0.04680615 0.029394144 0.044092115
000390 b3 b4 82 bc 7b fd 4c 3c af a7 16 bc e0 26 3d 3d
       -0.015955305 0.012511606 -0.009195252 0.046179652
0003a0 5f bb 9e bd e9 f9 50 bd 57 f2 9f 3d aa 24 70 3d
       -0.07750582 -0.051019583 0.078098945 0.058628716
0003b0 4d 7a 27 bc 49 0c e2 bd 5f 93 b5 bd e8 4a db 3b
       -0.01022203 -0.110374995 -0.088659994 0.006692279
0003c0 da fd be 3d d1 e9 6f 3c fa b2 35 bd 88 51 22 bc
       0.09325762 0.0146431485 -0.04436014 -0.009907134
0003d0 91 a7 84 bb fb 3c 6c 3d e1 c8 0a 3d 75 ef 2a bd
       -0.004048296 0.057675343 0.03388298 -0.04173227
0003e0 69 86 8f bb a2 85 12 3d b4 25 c4 bc ad 54 de bb
       -0.0043800366 0.035771973 -0.02394376 -0.0067849965
0003f0 12 ec ab bc b3 29 7b 3c de 36 30 bc c3 51 c8 3d
       -0.02098659 0.015329766 -0.010755269 0.0978122

fc1.bias f4 [120]
000000 92 dd cc 3d 0a b8 01 bd 5a 3e c2 3d c5 93 99 bc
       0.10003199 -0.031669654 0.09484549 -0.01874722
000010 b6 41 2a 3d 69 dd 05 be b8 19 d7 bc 48 87 8f 3e
       0.041566573 -0.13072743 -0.02625738 0.280329
000020 e4 7f 62 3d 42 3a 7f bd 2d ba b6 3d 51 16 57 3e
       0.055297747 -0.06231142 0.08922229 0.21004607
000030 58 b6 23 3e aa c6 c5 bc 02 0f b0 3d e6 8b 4a 3d
       0.15987527 -0.024142582 0.085966125 0.049449824
000040 78 26 1e 3d 44 8a 68 3d 7b 4d 2c bc 59 06 c9 bc
       0.038610905 0.056772485 -0.01051652 -0.02453916
000050 d0 c4 98 3c 5a 4f 11 3d e8 08 83 bd 68 7f 6c be
       0.018648535 0.035476066 -0.06398183 -0.23095477
000060 49 68 03 3e ca 5f 36 3e 0e e9 fc bc 89 01 8b 3c
       0.1283275 0.17809978 -0.030872848 0.016968505
000070 14 7d d8 3d 58 51 81 bc 1e 0a d3 3d 26 5c 3b 3e
       0.10570732 -0.015785858 0.10304664 0.1829687
000080 31 aa 7c bd 87 2d ff 3d fc 6b 2d 3e cd c3 ab bd
       -0.061685745 0.124598555 0.16935724 -0.083869554
000090 18 1f 36 3d 1a 44 cd bc 45 b8 8c 3e a2 b1 05 3e
       0.044463247 -0.025056887 0.27484336 0.13056043
0000a0 49 1f 95 3d f1 f8 fd 3c c2 20 3c bc 69 19 0b 3e
       0.07281358 0.031002494 -0.011482419 0.13583912
0000b0 9d 0b ed bc 44 79 39 3e 13 6e b8 3d bf 06 3c bd
       -0.028936202 0.18112665 0.0900537 -0.04590487
0000c0 45 45 0d 3e 78 e9 5a 3e 04 85 2e 3e 8f 02 c6 3d
       0.13795955 0.21378124 0.17042929 0.09668457
0000d0 93 d3 82 bb 09 6f 1f bd 29 81 be 3d f1 61 3c 3c
       -0.003992507 -0.03892425 0.09301979 0.01149796
0000e0 61 d1 04 be 1c fe 04 3e 5b 3f f5 bd 43 a0 fc bc
       -0.12970497 0.1298756 -0.11974975 -0.030838137
0000f0 a8 45 84 bb 99 88 88 bd 7f bb 85 bd df 19 ed be
       -0.004036624 -0.06666679 -0.06529903 -0.463088
000100 a8 95 27 3e 51 b1 95 3d 1d 9a 0f bd 07 18 79 3c
       0.16365683 0.07309211 -0.035059083 0.0152034825
000110 77 b5 a6 bc 3c 65 d7 3d 16 dc 01 3c ae d7 0b 3e
       -0.020350201 0.10517356 0.007926008 0.13656494
000120 32 de a8 3e 05 e2 d7 3d de 3f a4 3c 0f 74 e2 bc
       0.32982022 0.10541157 0.020049985 -0.027643232
000130 d3 3b f5 bd 59 4d 97 bd fa 49 8f bc 93 94 be bc
       -0.11974301 -0.073878 -0.01749133 -0.023264205
000140 e8 55 72 bd fa b1 19 be dc 90 62 3d b1 b7 4c 3d
       -0.059163958 -0.15009299 0.05531393 0.04997987
000150 a2 28 ac 3d d3 03 12 bd 5d 3c 2a 3c 99 4b 36 3e
       0.084061876 -0.03564818 0.010390368 0.17802276
000160 18 51 a2 bc 4d 53 79 3d af 33 ca ba 0d 57 cf 3d
       -0.01981406 0.060870457 -0.001542678 0.101240255
000170 1d 6a ad 3d 24 20 e0 bc 96 80 14 bd a5 93 1e 3d
       0.08467505 -0.027359076 -0.03625544 0.038715024
000180 d5 ac 88 bb 40 de 5b 3e de 71 c2 3c f7 e0 84 3d
       -0.004170994 0.214715 0.023735937 0.06488221
000190 6c ea 46 3e fb bf 5a bd 4b b5 81 bc 55 87 5c 3d
       0.19425362 -0.053405743 -0.015833518 0.05384
0001a0 bc 02 c2 3c e4 37 99 3c 10 ab 11 3d 1f 1e 0a be
       0.023682944 0.018703409 0.03556353 -0.13488053
0001b0 ec 95 5b bc 0b 21 a9 bc bf 70 f0 3d 62 c5 1f 3d
       -0.013402443 -0.020645639 0.117402546 0.0390066
0001c0 1a a8 0c bd ed 78 4b bd 72 83 92 3e 48 21 9d bd
       -0.03434 -0.04967587 0.2861591 -0.076723635
0001d0 f5 ea 46 3d 00 8f 1d bc e8 40 7b 3e dd c6 7e bd
       0.048563916 -0.009616613 0.24536479 -0.06220137

fc2.weight f4 [84, 120]
000000 e5 3e 7e 3d c5 36 2c 3c d2 e0 20 3e 44 e7 1a bc
       0.0620717 0.010511105 0.15710762 -0.009454552
000010 ae bb 4f 3d 3e c4 13 be 4c 39 ce 3c 61 27 98 bd
       0.050716095 -0.14430329 0.025173806 -0.07429386
000020 da 5b 90 3d e9 3c 71 bd 83 6c 33 bd ee 59 89 3d
       0.07048769 -0.05889598 -0.043804657 0.06706606
000030 df 41 64 3d 62 67 df bd 09 b9 e2 bb 9b 0e ac bc
       0.055726882 -0.109083906 -0.0069190306 -0.021003058
000040 e9 13 05 3c 6a ec 86 3d 07 b3 c1 3d da c5 18 bb
       0.008122423 0.06588061 0.09457975 -0.0023311288
000050 92 10 4a ba e5 a6 dd 3d a8 3c 81 bd b4 6f e4 bd
       -0.00077081576 0.10822848 -0.063103974 -0.11154118
000060 48 92 2e 3d 94 ed a6 bd 7f 97 4d bc 75 51 24 be
       0.042619973 -0.08150783 -0.0125483265 -0.16046698
000070 ef 10 3a 3e 92 37 e4 bc c7 bd 02 bd 59 98 0c bc
       0.18170522 -0.02785853 -0.031919267 -0.008581244
000080 32 87 12 be 99 5e 9d bd db 4c 24 3e 23 e6 b5 3d
       -0.14309385 -0.07684059 0.16044943 0.08881786
000090 bf 88 f5 3d 98 59 b5 3d 1e d5 be 3c 19 c7 9f 3d
       0.11988973 0.08854979 0.023294982 0.07801647
0000a0 91 0f 28 bd a7 9d d6 bd 8f dd 24 bd 27 33 f8 3c
       -0.04103047 -0.104792885 -0.040250357 0.030297829
0000b0 6a 16 7c 3d e7 c9 8a 3d a6 62 d0 3c 62 d3 bd bc
       0.061544813 0.06776791 0.025437664 -0.023172084
0000c0 ad f9 b5 bc cc a8 6e 3c 94 fe 59 3c 27 3b 23 be
       -0.022213781 0.0145666115 0.013305325 -0.15940534
0000d0 55 9d dd 3d 07 c0 00 bc 2d 1b 00 be 75 13 53 3e
       0.10821024 -0.007858283 -0.12510367 0.20612891
0000e0 7d a1 9d bd 4a 0d 6f bc de d1 9a bd a6 bb c6 bc
       -0.07696817 -0.014590571 -0.0755956 -0.0242594
0000f0 e9 90 5f 3d 1c 6a b3 37 7f 84 4a be 99 6b b4 bd
       0.054581556 2.1387874e-05 -0.19777106 -0.08809585
000100 5a b4 62 bd 8b 71 6d bc 53 fc cd bd ce 4b af bd
       -0.055347778 -0.014492403 -0.10057893 -0.085593805
000110 43 4c a4 3b d2 11 90 3d 1f 51 12 3d 77 11 ff 3d
       0.005013974 0.07034649 0.035721894 0.12454503
000120 ab 95 26 3e 3d d1 ce bd e9 8f e6 bc 0b 0e bd 3d
       0.16268031 -0.10098503 -0.028144794 0.09231194
000130 c1 83 02 3e 5e 8f 1f be dd 78 a4 3d e2 27 8c bd
       0.12745573 -0.15582034 0.08030865 -0.068435445
000140 1d 7d d2 bd 9c 19 c9 3d ec 2a 9d bd 2f 51 57 bd
       -0.1027777 0.09819338 -0.07674202 -0.052567657
000150 6d 00 c2 3c 66 8d a5 bd 25 56 a3 3d 34 43 07 bd
       0.023681844 -0.0808361 0.07975415 -0.033023074
000160 55 a9 ed bd d3 ca c7 3b cf d7 25 bd 93 1f ca 3d
       -0.11604563 0.0060971766 -0.040489014 0.098693036
000170 e6 d3 f7 bd ab 9d 85 bc 48 9a fd 3d 71 df 18 3e
       -0.12100963 -0.016310534 0.123829424 0.14928986
000180 45 41 81 bd d6 1a 03 bd 62 b5 38 be f3 c9 06 3d
       -0.06311277 -0.032008015 -0.18037942 0.032907438
000190 87 7e 9e bd 31 6d c7 bc d0 a1 81 3d e6 bf 1f 3b
       -0.07738977 -0.024344059 0.063296914 0.0024375855
0001a0 9b 00 42 bd dd 62 0c 3c 3b 9d 21 3e 5e b9 07 be
       -0.04736386 0.008568493 0.15782635 -0.13254306
0001b0 0d 33 15 bd 83 94 39 3d 76 82 b0 bd eb d7 11 3c
       -0.03642564 0.045307647 -0.086186334 0.0089015765
0001c0 5b 14 a2 3d 23 ef 5e bd b0 18 49 3e 11 3a 2e be
       0.07914039 -0.054427277 0.19638324 -0.17014338
0001d0 1b 01 10 3d ff c5 2b bd 84 e5 00 be e2 c1 0e be
       0.035157304 -0.04193687 -0.12587553 -0.13941148
0001e0 c0 32 0d be cb ad a3 3d cb b0 72 bd a4 eb f3 3d
       -0.13788891 0.07992133 -0.059250634 0.11910179
0001f0 14 e0 88 3d cf b5 42 3b 61 08 84 3c e2 90 b7 bc
       0.066833645 0.0029710417 0.016117277 -0.022407953
000200 55 f4 c5 3d ef 5a 25 3d 38 af 9f bd 15 07 09 3e
       0.09665743 0.040369924 -0.07797092 0.13381608
000210 ff f1 89 bd 92 42 d8 bc e4 07 a3 3c e4 7b 87 3c
       -0.0673561 -0.02639893 0.019901223 0.016538568
000220 5b 44 e2 3c cb 15 bd bb 5b 74 f6 bd 23 e9 b4 bb
       0.027620485 -0.00577042 -0.12033912 -0.005520956
000230 5f f3 5c 3d e3 71 a0 3d 11 e9 92 bc cd 49 bc 3c
       0.053943034 0.07834222 -0.0179334 0.02298441
000240 06 7c 72 bc a8 10 30 be 9d 71 c0 3d ce 17 b9 bd
       -0.014800077 -0.17193854 0.0939667 -0.090377435
000250 ed 64 9d 3c c3 f1 8f 3c 3c a7 e8 3c dd 97 42 bd
       0.019213164 0.017571336 0.028400056 -0.04750811
000260 25 c5 c1 bd aa f8 06 bd fb 32 24 bc 1a f2 c9 3c
       -0.094614305 -0.03295199 -0.01002192 0.024651576
000270 85 eb 28 3b d2 ca 3c bd 7e 48 7b 3c bc 67 ed 3b
       0.0025775146 -0.046091862 0.015337108 0.007245032
000280 f9 95 fb bc 52 12 4e 3d 9d 2a fc bb d1 76 02 3d
       -0.030711161 0.05031044 -0.0076955096 0.031851593
000290 36 82 b3 bd cf 84 f8 bc 1d 51 44 3d 7a b4 9a bc
       -0.0876507 -0.030336766 0.04792892 -0.018884886
0002a0 c3 0b 86 bd 09 01 15 be 71 d3 3f be c3 6c a9 3c
       -0.06545212 -0.14551176 -0.18733002 0.020681744
0002b0 0e 8f bb 3d a4 6e 10 bc 5b 84 77 bd 6c bd ff 3d
       0.09158145 -0.008815441 -0.06042896 0.12487301
0002c0 d8 59 24 bd 3c 23 db 3d 58 92 ff 3d 21 c5 08 bc
       -0.040124744 0.1070008 0.12479085 -0.00834778
0002d0 40 29 1e 3d cd c7 9d bd 00 1d 3b bd 2b bb 73 bd
       0.038613558 -0.077041246 -0.045681953 -0.05950467
0002e0 bd ee c7 bd 64 43 41 3c c3 f4 38 3b d4 a0 7a bd
       -0.097623326 0.011795852 0.0028222061 -0.061188534
0002f0 d9 f0 ff bd 1a 9a 4d bd 3f b6 0d be 17 44 b3 3d
       -0.1249711 -0.05019579 -0.13839053 0.087532215
000300 c0 a5 4a bd fc 74 4e be 61 b5 19 3d 7d eb 39 3e
       -0.049474478 -0.20161813 0.037526492 0.18156238
000310 c4 47 7b 3d 6e be 5b bd c5 21 78 bc 30 19 9f bd
       0.061347738 -0.053648405 -0.01514477 -0.07768476
000320 1a 48 ea bd f9 fa a8 bc ff 74 a6 3d 97 a5 5e 3d
       -0.114395335 -0.020627486 0.08127784 0.054357138
000330 e3 40 78 bd 97 5e 9d bd f2 83 b5 bd 66 e0 9b bc
       -0.060608756 -0.07684057 -0.08863057 -0.0190279
000340 ef 7c f5 3c 62 79 a9 3d dd 1e bd bd f7 56 f1 bd
       0.0299668 0.08275105 -0.09234402 -0.11784165
000350 10 96 97 3d f0 80 c9 3b e2 42 5b bd 43 42 b6 bc
       0.07401669 0.0061494038 -0.05353058 -0.022248393
000360 49 12 00 be a2 1c 47 3b ed 14 e6 bd ff 72 ab 3d
       -0.12506975 0.0030382057 -0.1123446 0.08371543
000370 31 b4 85 bd b9 83 77 3a ee 9a 86 3d 6d 45 18 3d
       -0.065285094 0.00094419305 0.06572519 0.037175585
000380 40 73 9e bd 26 7c 25 3d 5e e5 28 3e 53 2d 0d be
       -0.07736826 0.0404016 0.16493747 -0.13786821
000390 0f cc e1 bc bf c1 84 3b 0f 31 10 be b5 64 30 bd
       -0.027563123 0.0040514166 -0.14081214 -0.04306479
0003a0 b8 f7 95 bd c6 51 c1 3d 76 06 4a 3d fa 1e d7 3c
       -0.07322639 0.09439425 0.049322568 0.026259888
0003b0 3f 42 80 3d 09 b4 ab 3c 0c 79 c4 bd 1e 7a bf bd
       0.062626354 0.02095987 -0.095934 -0.09349464
0003c0 bf 5c 49 bd 9e f5 30 bc 9e d8 41 3d f5 4f f9 bc
       -0.049160715 -0.010800747 0.047325723 -0.030433634
0003d0 ab 2f 44 3c 5c b9 df 3d 8b e6 7b bd b8 b9 e2 bd
       0.011974256 0.10924026 -0.06149916 -0.11070579
0003e0 5b f0 78 bd 58 90 cf bb f2 7f 99 3d 96 7f 88 3d
       -0.060776096 -0.006334346 0.07495107 0.0666496
0003f0 93 65 49 bc be 6e 8a 3b 0f 53 ba bd 91 f8 3d bd
       -0.012292284 0.0042246273 -0.090978734 -0.04637963

fc2.bias f4 [84]
000000 99 e3 a2 3e 0e 64 4e 3e 8b 16 de bc 44 5d 31 3d
       0.31814268 0.20155355 -0.027110359 0.043301836
000010 8a f4 a0 3e 1c 40 2e 3e e8 ef a6 3e 4c c9 05 3d
       0.31436568 0.17016643 0.3260491 0.032662675
000020 d2 88 b6 3d 9b b4 88 3e 6d fb d3 bd 48 f0 bf 3d
       0.08912815 0.2670029 -0.1035069 0.09372002
000030 a1 7a a2 3e ee 3f 9b bc 62 8c 91 3e 10 54 35 be
       0.31734183 -0.018951382 0.28427416 -0.17707849
000040 36 70 90 3e 8c ad 9c bc 62 bd b1 bc f7 ad eb bc
       0.2821061 -0.019125722 -0.02169675 -0.028769476
000050 e0 55 45 3d ff c1 89 3d 93 d5 9b 3d e5 4d 7f 3e
       0.0481776 0.06726455 0.076090954 0.24932058
000060 8b d1 00 3e 64 57 ee 3d 0b df ed bc fe 11 51 3e
       0.12579934 0.11637762 -0.02903702 0.2041702
000070 63 47 14 bd d9 95 e9 3d 7e 34 2f bd 74 d2 e8 3e
       -0.036200892 0.11405534 -0.04277467 0.45473063
000080 1d 86 ee 3d fe 8b 90 bd c2 2a 20 3e d2 c6 96 bd
       0.11646674 -0.070579514 0.15641311 -0.07362141
000090 ae 11 7b 3c 8a 41 58 3e bc 09 45 3e 35 a9 8d 3e
       0.015324039 0.21118751 0.19241995 0.27668157
0000a0 93 90 ce 3d 65 09 e5 3d 1b 04 5c 3e 58 0c fe 3d
       0.10086169 0.111834325 0.21485941 0.12404698
0000b0 21 c7 1a 3e e3 a0 90 3e 5d 4c 53 3e 27 8c 82 3e
       0.15115024 0.28247747 0.20634599 0.25497553
0000c0 24 9b 9b bd f1 31 ba bd 9d b2 43 3e 27 68 8c 3e
       -0.0759795 -0.09091557 0.19111104 0.27423212
0000d0 1d 02 65 3c a4 f1 cd 3d 79 2c 18 3d 8a 2c 92 3c
       0.013977555 0.10055855 0.037151787 0.017843504
0000e0 fc cf 59 bc c0 be 3d 3e bc 01 22 3e 96 ab b5 bd
       -0.013294216 0.18529797 0.15820974 -0.08870618
0000f0 58 7a 33 3d 30 de 8a 3c e2 39 3a 3c f8 95 b7 3e
       0.043817848 0.01695165 0.011366339 0.35856605
000100 4b 92 e7 3d 93 71 1f 3e bc d1 b3 3b 9a eb b7 3d
       0.113072 0.15570669 0.005487649 0.08980484
000110 51 07 86 bd d9 0e 8b 3e c6 b4 09 3e 72 a2 48 bd
       -0.06544364 0.27159765 0.13447866 -0.048983045
000120 6e 3d 1c bd 40 b9 a7 3e 04 9c 16 3e 4a 2d b9 3d
       -0.03814452 0.32758522 0.14707953 0.09041841
000130 16 ec 08 bd 69 c7 ce bd 5e 0b 30 3e af bd 67 3f
       -0.033428274 -0.10096628 0.17191836 0.9052381
000140 0d 5d c0 3d 42 cf 04 3e d7 d0 5c 3e b1 81 ed 3c
       0.09392748 0.12969688 0.21564041 0.028992506

fc3.weight f4 [10, 84]
000000 82 00 82 bd 80 05 2d 3e 65 24 47 3e 16 8b ee bd
       -0.06347753 0.1689663 0.19447477 -0.11647622
000010 37 fa 6e bd 43 0f 40 3e 3b 22 27 3e 4a 56 79 3e
       -0.058344092 0.18755822 0.16321652 0.24349323
000020 28 0b db 3c ec 31 b6 3d e6 38 a1 3d 1e 5e e1 3d
       0.026738718 0.088962406 0.07872181 0.110042796
000030 38 0e 49 be 4c 7d 0f 3d f4 f3 66 bd d9 98 89 bc
       -0.1963433 0.0350316 -0.056384996 -0.016796516
000040 38 be 8e 3e dd 03 85 bd ef e2 0c 3e de 59 1e 3e
       0.278795 -0.064948775 0.13758443 0.15463969
000050 62 57 51 3d 9a ae 52 3b 3d 75 3a 3e 35 1b 35 3e
       0.051108725 0.0032147528 0.18208785 0.1768616
000060 50 85 09 be 0f d4 68 3e a4 3d 35 3e 71 ac 00 be
       -0.13429761 0.22737144 0.17699295 -0.12565781
000070 33 21 0e 3e 49 61 5b be 60 ec 83 3e 8e 7a 80 bd
       0.13879852 -0.2142383 0.25766277 -0.062733755
000080 09 4c a1 be 56 80 89 bd 25 0b e8 3d 35 b4 b4 bd
       -0.31503323 -0.06713931 0.11330251 -0.08823434
000090 b9 18 8e 3d b6 81 8a bd a2 f6 97 3e 06 96 12 be
       0.06938309 -0.06763022 0.29680353 -0.14315042
0000a0 40 70 d3 3d 88 9e ab bc 8d b9 1b be aa b8 c6 3d
       0.10324144 -0.020949617 -0.15207501 0.097031906
0000b0 59 c8 3a 3e be 59 80 3d 79 d4 0f bc 2f 5d 24 3e
       0.18240489 0.06267117 -0.008778685 0.16051172
0000c0 dc 94 5a bc a7 03 5c 3d ad 10 a4 3c a1 02 7b 3d
       -0.013341155 0.05371442 0.020027483 0.061281804
0000d0 98 81 b8 3d 74 f0 34 bb 7e 26 dd 3d 97 e6 4f 3d
       0.09009093 -0.0027609142 0.107983574 0.050757017
0000e0 e3 ec 3a bd 58 d3 0a be ed d3 71 bd fa 7e 6a 3e
       -0.04563607 -0.13557184 -0.05904 0.229
0000f0 33 0d 52 3d 29 3c 20 3e d3 7a a3 3c 64 cc 93 3e
       0.05128212 0.1564795 0.019956028 0.28866875
000100 fa 20 53 be a8 cc 9a bd 56 f4 f7 3d 1b 24 72 3d
       -0.20618048 -0.07558566 0.1210715 0.059116464
000110 20 5f 19 be ca d8 b2 3d ae 4f f6 3d 62 24 8e bd
       -0.14977694 0.087327555 0.120269164 -0.06940533
000120 f3 fc 61 ba 28 49 2b 3e eb 5b 99 bd 51 1b 36 3c
       -0.0008620761 0.16727126 -0.07488235 0.011114911
000130 8c a6 1b 3d 54 53 45 3e fe 17 12 bd 8b dc d1 be
       0.03800063 0.19270068 -0.035667412 -0.40988573
000140 27 69 ed bd 38 ea ac bd d9 5d f6 bd 85 6e 10 3e
       -0.11592322 -0.08443111 -0.12029619 0.1410466
000150 c1 26 9d bd cd 74 ae 3d 00 a2 4d 3e 29 07 ab bd
       -0.07673407 0.08518372 0.2008133 -0.08350975
000160 14 17 23 be 36 16 df 3d 93 08 eb be 64 12 ce bd
       -0.15926772 0.10892908 -0.4590498 -0.100621015
000170 03 e6 3a bd 13 09 10 3e 6b c6 56 3d 7e 01 6f bd
       -0.045629513 0.14065962 0.05243532 -0.058351032
000180 ef f4 3e be 91 eb bd 3d 17 11 29 be 38 c0 03 bb
       -0.18648122 0.09273446 -0.16510426 -0.0020103585
000190 da 1e 99 be 35 a8 04 bd 29 36 41 3e d3 2b 59 3e
       -0.2990635 -0.032386977 0.18868317 0.21208124
0001a0 a5 4e 6d 3e 3b d8 b0 3c a3 08 8f bd 68 f4 f7 bc
       0.23174532 0.021587482 -0.06984069 -0.03026791
0001b0 f9 17 cb 3d 6a a0 73 3e ea c1 fe bb 81 38 46 be
       0.09916682 0.23791662 -0.007774581 -0.19357492
0001c0 23 ba 85 3e d8 03 a9 3d 3d b6 ae be 82 c8 c5 be
       0.26118574 0.08252686 -0.34123412 -0.38629538
0001d0 3e 7b 1c 3e 75 cf 86 3e 83 12 58 be b4 a1 df 3d
       0.15281388 0.26330152 -0.21100812 0.10919514
0001e0 e6 fd ce bd 1d d6 05 bd ab f0 5f be 26 78 84 be
       -0.10107021 -0.032674897 -0.21869151 -0.25872916
0001f0 39 89 91 3e 4b 2f 12 be a9 37 75 be 05 08 54 3e
       0.28425005 -0.14275853 -0.23947014 0.20706184
000200 e1 d0 18 bd e7 e5 79 3d 0f 60 a4 bc 73 32 0a be
       -0.037308577 0.061010268 -0.020065336 -0.13495807
000210 41 ad d2 bc 5e af c9 bd 8f 86 2c 3e 06 82 fb bd
       -0.02571738 -0.09847902 0.16848205 -0.122806594
000220 fc e8 3c bd d8 c5 ec 3d 5f ae 13 be ba 01 8b 3c
       -0.04612063 0.11561173 -0.14421986 0.016968597
000230 14 ff 11 be c6 1b ef 3d 4d 28 19 be 9d 8b c7 3d
       -0.14257461 0.11675219 -0.1495678 0.09743426
000240 2b 1f 03 3e 38 84 b2 bd 4d 43 a0 3e 67 75 23 3e
       0.12804858 -0.08716625 0.31301346 0.15962754
000250 3c 7c 39 be f1 f5 01 bd d2 aa 09 3e 39 0e 3e 3d
       -0.18113798 -0.03172869 0.13444069 0.046400283
000260 59 fa a3 3e 64 c8 37 3d 55 3c 47 be de 6b 30 3e
       0.32026938 0.04486884 -0.19456609 0.17228648
000270 33 a0 97 be 54 75 31 3d 2c d3 4c 3d e3 77 b6 3e
       -0.2961441 0.043324783 0.050006077 0.3563834
000280 6d c6 c0 bd 12 ea 92 bd 5a 8c 7c 3d 8e c1 81 be
       -0.09412847 -0.071735516 0.061657287 -0.25342983
000290 2e e0 c9 bd 52 6f 48 3d 2c ae 91 be f3 d5 a6 3d
       -0.09857212 0.04893429 -0.28453195 0.08146276
0002a0 1b 57 d3 bc 0d eb 9f bd 5f b0 b3 bd 4f ce 26 3c
       -0.025798371 -0.07808504 -0.087738745 0.010181024
0002b0 e7 83 00 bb 48 af 97 bd 83 9c 9a 3e e6 0f 28 bd
       -0.001960987 -0.07406479 0.30197534 -0.041030787
0002c0 3e 56 6e be 30 5a fd 3c 38 e7 76 3e bf 97 03 be
       -0.23275086 0.030926794 0.2411164 -0.12850855
0002d0 04 52 a3 3d 63 7b 98 bd 1e fb b0 3b cf 8b ef bd
       0.079746276 -0.07445409 0.0054010293 -0.11696588
0002e0 35 6c 99 3e c8 79 e3 3b 8b 0b 93 be e2 43 cf 3d
       0.29965368 0.0069420077 -0.28719744 0.101203695
0002f0 a3 4d b8 bd 5f db 0c be ce ab d4 bd f9 6e 4e bd
       -0.08999183 -0.13755558 -0.10384332 -0.0503988
000300 cb d7 2e 3e b2 48 08 bd fe 5e 87 bd 5c 42 b3 3d
       0.17074506 -0.033272453 -0.06609915 0.087528914
000310 22 6c aa bc 6e 49 3d bd 66 83 17 3e ec 56 11 3e
       -0.020803515 -0.046212606 0.14796218 0.14193314
000320 f4 fc 8d 3e 09 1b 15 be 2e 71 16 be 5e 41 77 bc
       0.2773205 -0.14561094 -0.14691612 -0.015091268
000330 36 c5 fd 3d 58 b9 c3 3d 10 92 2d 3d bb a0 ad 3d
       0.123911306 0.09556836 0.042375624 0.084779225
000340 f9 7b fe bd c4 ed 23 be 93 2f 88 3c de 50 10 be
       -0.1242599 -0.16008669 0.016624248 -0.14093348
000350 41 02 73 3d 15 54 bc 3d f6 0e 48 3d 04 33 08 bd
       0.05932832 0.09195725 0.048842393 -0.033251777
000360 fa 73 6a 3e 12 2e e2 bd f2 a7 05 be 9b 8c 1e 3e
       0.22895804 -0.110439435 -0.13052347 0.15483324
000370 77 82 aa bc 10 32 22 be 9c 03 a3 3c 62 5e 70 bd
       -0.020814164 -0.1583941 0.019899182 -0.05868376
000380 35 82 78 3d 8e 35 ed bd 6d ff 39 be ee b1 7f 3e
       0.06067105 -0.1158248 -0.18163843 0.24970219
000390 17 e1 95 3d f9 29 24 3e 59 87 19 bd 05 b1 e9 bb
       0.07318323 0.16031636 -0.037482593 -0.007131698
0003a0 96 0c 5f 3e 84 e2 85 3e d9 c1 25 3e 1a 58 16 3d
       0.21782145 0.2614938 0.16187228 0.036705114
0003b0 66 d2 1b 3e 45 a0 79 3d a0 44 a1 3e 55 c7 6f 3d
       0.1521698 0.06094386 0.3149767 0.058539707
0003c0 f5 8f 81 3e b3 e9 3c 3e 51 ee a7 3d ef 01 41 bd
       0.25305143 0.18448524 0.08199752 -0.047120985
0003d0 ea 18 9a bd 4c 5e 17 bc ee d3 b5 3c 1f 7f 63 3e
       -0.07524283 -0.009238791 0.022195783 0.22216462
0003e0 11 fb 53 3d 87 57 2f bd 57 bc 23 3e 00 66 08 3e
       0.051753107 -0.042808082 0.15989815 0.1332016
0003f0 3f 64 3b bd c4 92 cd bb 23 3e 0a bd f2 33 14 bd
       -0.0457499 -0.0062735993 -0.033750664 -0.03618235

fc3.bias f4 [10]
000000 81 65 a2 be 60 a4 f7 be 76 bd 21 be a6 91 10 3f
       -0.31718066 -0.48367596 -0.1579493 0.5647224
000010 0f ff 07 3f 35 c6 4b bd 2a 15 35 3e 8c e6 db be
       0.53123564 -0.04974957 0.17683855 -0.4294933
000020 ae 91 9a 3e 9d cc 3d be
       0.3018927 -0.18535085
